{"format": "graph-model", "generatedBy": "2.3.1", "convertedBy": "TensorFlow.js Converter v2.7.0", "userDefinedMetadata": {"signature": {"outputs": {"Identity": {"name": "Identity"}}}}, "modelTopology": {"node": [{"name": "functional_1/policy_cnn_1_batchnorm/Const_1", "op": "Const", "attr": {"dtype": {"type": "DT_INT32"}, "value": {"tensor": {"dtype": "DT_INT32", "tensorShape": {"dim": [{"size": "2"}]}}}}}, {"name": "functional_1/policy_cnn_1_batchnorm/strided_slice_1/stack", "op": "Const", "attr": {"value": {"tensor": {"dtype": "DT_INT32", "tensorShape": {"dim": [{"size": "1"}]}}}, "dtype": {"type": "DT_INT32"}}}, {"name": "functional_1/policy_cnn_1_batchnorm/strided_slice_1/stack_1", "op": "Const", "attr": {"value": {"tensor": {"dtype": "DT_INT32", "tensorShape": {"dim": [{"size": "1"}]}}}, "dtype": {"type": "DT_INT32"}}}, {"name": "functional_1/policy_cnn_1_batchnorm/strided_slice_1/stack_2", "op": "Const", "attr": {"value": {"tensor": {"dtype": "DT_INT32", "tensorShape": {"dim": [{"size": "1"}]}}}, "dtype": {"type": "DT_INT32"}}}, {"name": "functional_1/policy_cnn_1_batchnorm/concat_1/axis", "op": "Const", "attr": {"value": {"tensor": {"dtype": "DT_INT32", "tensorShape": {}}}, "dtype": {"type": "DT_INT32"}}}, {"name": "functional_1/policy_cnn_1_batchnorm/batchnorm/Rsqrt", "op": "Const", "attr": {"value": {"tensor": {"dtype": "DT_FLOAT", "tensorShape": {"dim": [{"size": "1"}, {"size": "1"}, {"size": "64"}, {"size": "1"}, {"size": "1"}]}}}, "dtype": {"type": "DT_FLOAT"}}}, {"name": "functional_1/policy_cnn_1_batchnorm/batchnorm/sub", "op": "Const", "attr": {"value": {"tensor": {"dtype": "DT_FLOAT", "tensorShape": {"dim": [{"size": "1"}, {"size": "1"}, {"size": "64"}, {"size": "1"}, {"size": "1"}]}}}, "dtype": {"type": "DT_FLOAT"}}}, {"name": "functional_1/policy_cnn_1_batchnorm/Const", "op": "Const", "attr": {"value": {"tensor": {"dtype": "DT_INT32", "tensorShape": {"dim": [{"size": "1"}]}}}, "dtype": {"type": "DT_INT32"}}}, {"name": "functional_1/apply_squeeze_excitation_5/split/split_dim", "op": "Const", "attr": {"value": {"tensor": {"dtype": "DT_INT32", "tensorShape": {}}}, "dtype": {"type": "DT_INT32"}}}, {"name": "functional_1/global_average_pooling2d_5/Mean/reduction_indices", "op": "Const", "attr": {"value": {"tensor": {"dtype": "DT_INT32", "tensorShape": {"dim": [{"size": "2"}]}}}, "dtype": {"type": "DT_INT32"}}}, {"name": "functional_1/res_block_5_squeeze/MatMul/ReadVariableOp/resource", "op": "Const", "attr": {"value": {"tensor": {"dtype": "DT_FLOAT", "tensorShape": {"dim": [{"size": "64"}, {"size": "8"}]}}}, "dtype": {"type": "DT_FLOAT"}}}, {"name": "functional_1/res_block_5_squeeze/BiasAdd/ReadVariableOp/resource", "op": "Const", "attr": {"value": {"tensor": {"dtype": "DT_FLOAT", "tensorShape": {"dim": [{"size": "8"}]}}}, "dtype": {"type": "DT_FLOAT"}}}, {"name": "functional_1/res_block_5_excited/MatMul/ReadVariableOp/resource", "op": "Const", "attr": {"dtype": {"type": "DT_FLOAT"}, "value": {"tensor": {"dtype": "DT_FLOAT", "tensorShape": {"dim": [{"size": "8"}, {"size": "128"}]}}}}}, {"name": "functional_1/res_block_5_excited/BiasAdd/ReadVariableOp/resource", "op": "Const", "attr": {"value": {"tensor": {"dtype": "DT_FLOAT", "tensorShape": {"dim": [{"size": "128"}]}}}, "dtype": {"type": "DT_FLOAT"}}}, {"name": "functional_1/apply_squeeze_excitation_5/Reshape/shape", "op": "Const", "attr": {"value": {"tensor": {"dtype": "DT_INT32", "tensorShape": {"dim": [{"size": "4"}]}}}, "dtype": {"type": "DT_INT32"}}}, {"name": "functional_1/res_block_5_cnn_2_batchnorm/Const_1", "op": "Const", "attr": {"value": {"tensor": {"dtype": "DT_INT32", "tensorShape": {"dim": [{"size": "2"}]}}}, "dtype": {"type": "DT_INT32"}}}, {"name": "functional_1/res_block_5_cnn_2_batchnorm/strided_slice_1/stack", "op": "Const", "attr": {"value": {"tensor": {"dtype": "DT_INT32", "tensorShape": {"dim": [{"size": "1"}]}}}, "dtype": {"type": "DT_INT32"}}}, {"name": "functional_1/res_block_5_cnn_2_batchnorm/strided_slice_1/stack_1", "op": "Const", "attr": {"value": {"tensor": {"dtype": "DT_INT32", "tensorShape": {"dim": [{"size": "1"}]}}}, "dtype": {"type": "DT_INT32"}}}, {"name": "functional_1/res_block_5_cnn_2_batchnorm/strided_slice_1/stack_2", "op": "Const", "attr": {"value": {"tensor": {"dtype": "DT_INT32", "tensorShape": {"dim": [{"size": "1"}]}}}, "dtype": {"type": "DT_INT32"}}}, {"name": "functional_1/res_block_5_cnn_2_batchnorm/concat_1/axis", "op": "Const", "attr": {"value": {"tensor": {"dtype": "DT_INT32", "tensorShape": {}}}, "dtype": {"type": "DT_INT32"}}}, {"name": "functional_1/res_block_5_cnn_2_batchnorm/batchnorm/mul", "op": "Const", "attr": {"value": {"tensor": {"dtype": "DT_FLOAT", "tensorShape": {"dim": [{"size": "1"}, {"size": "1"}, {"size": "64"}, {"size": "1"}, {"size": "1"}]}}}, "dtype": {"type": "DT_FLOAT"}}}, {"name": "functional_1/res_block_5_cnn_2_batchnorm/batchnorm/sub", "op": "Const", "attr": {"dtype": {"type": "DT_FLOAT"}, "value": {"tensor": {"dtype": "DT_FLOAT", "tensorShape": {"dim": [{"size": "1"}, {"size": "1"}, {"size": "64"}, {"size": "1"}, {"size": "1"}]}}}}}, {"name": "functional_1/res_block_5_cnn_2_batchnorm/Const", "op": "Const", "attr": {"value": {"tensor": {"dtype": "DT_INT32", "tensorShape": {"dim": [{"size": "1"}]}}}, "dtype": {"type": "DT_INT32"}}}, {"name": "functional_1/res_block_5_cnn_1_batchnorm/Const_1", "op": "Const", "attr": {"value": {"tensor": {"dtype": "DT_INT32", "tensorShape": {"dim": [{"size": "2"}]}}}, "dtype": {"type": "DT_INT32"}}}, {"name": "functional_1/res_block_5_cnn_1_batchnorm/strided_slice_1/stack", "op": "Const", "attr": {"dtype": {"type": "DT_INT32"}, "value": {"tensor": {"dtype": "DT_INT32", "tensorShape": {"dim": [{"size": "1"}]}}}}}, {"name": "functional_1/res_block_5_cnn_1_batchnorm/strided_slice_1/stack_1", "op": "Const", "attr": {"value": {"tensor": {"dtype": "DT_INT32", "tensorShape": {"dim": [{"size": "1"}]}}}, "dtype": {"type": "DT_INT32"}}}, {"name": "functional_1/res_block_5_cnn_1_batchnorm/strided_slice_1/stack_2", "op": "Const", "attr": {"value": {"tensor": {"dtype": "DT_INT32", "tensorShape": {"dim": [{"size": "1"}]}}}, "dtype": {"type": "DT_INT32"}}}, {"name": "functional_1/res_block_5_cnn_1_batchnorm/concat_1/axis", "op": "Const", "attr": {"value": {"tensor": {"dtype": "DT_INT32", "tensorShape": {}}}, "dtype": {"type": "DT_INT32"}}}, {"name": "functional_1/res_block_5_cnn_1_batchnorm/batchnorm/Rsqrt", "op": "Const", "attr": {"dtype": {"type": "DT_FLOAT"}, "value": {"tensor": {"dtype": "DT_FLOAT", "tensorShape": {"dim": [{"size": "1"}, {"size": "1"}, {"size": "64"}, {"size": "1"}, {"size": "1"}]}}}}}, {"name": "functional_1/res_block_5_cnn_1_batchnorm/batchnorm/sub", "op": "Const", "attr": {"value": {"tensor": {"dtype": "DT_FLOAT", "tensorShape": {"dim": [{"size": "1"}, {"size": "1"}, {"size": "64"}, {"size": "1"}, {"size": "1"}]}}}, "dtype": {"type": "DT_FLOAT"}}}, {"name": "functional_1/res_block_5_cnn_1_batchnorm/Const", "op": "Const", "attr": {"value": {"tensor": {"dtype": "DT_INT32", "tensorShape": {"dim": [{"size": "1"}]}}}, "dtype": {"type": "DT_INT32"}}}, {"name": "functional_1/apply_squeeze_excitation_4/split/split_dim", "op": "Const", "attr": {"dtype": {"type": "DT_INT32"}, "value": {"tensor": {"dtype": "DT_INT32", "tensorShape": {}}}}}, {"name": "functional_1/global_average_pooling2d_4/Mean/reduction_indices", "op": "Const", "attr": {"value": {"tensor": {"dtype": "DT_INT32", "tensorShape": {"dim": [{"size": "2"}]}}}, "dtype": {"type": "DT_INT32"}}}, {"name": "functional_1/res_block_4_squeeze/MatMul/ReadVariableOp/resource", "op": "Const", "attr": {"value": {"tensor": {"dtype": "DT_FLOAT", "tensorShape": {"dim": [{"size": "64"}, {"size": "8"}]}}}, "dtype": {"type": "DT_FLOAT"}}}, {"name": "functional_1/res_block_4_squeeze/BiasAdd/ReadVariableOp/resource", "op": "Const", "attr": {"value": {"tensor": {"dtype": "DT_FLOAT", "tensorShape": {"dim": [{"size": "8"}]}}}, "dtype": {"type": "DT_FLOAT"}}}, {"name": "functional_1/res_block_4_excited/MatMul/ReadVariableOp/resource", "op": "Const", "attr": {"value": {"tensor": {"dtype": "DT_FLOAT", "tensorShape": {"dim": [{"size": "8"}, {"size": "128"}]}}}, "dtype": {"type": "DT_FLOAT"}}}, {"name": "functional_1/res_block_4_excited/BiasAdd/ReadVariableOp/resource", "op": "Const", "attr": {"value": {"tensor": {"dtype": "DT_FLOAT", "tensorShape": {"dim": [{"size": "128"}]}}}, "dtype": {"type": "DT_FLOAT"}}}, {"name": "functional_1/apply_squeeze_excitation_4/Reshape/shape", "op": "Const", "attr": {"value": {"tensor": {"dtype": "DT_INT32", "tensorShape": {"dim": [{"size": "4"}]}}}, "dtype": {"type": "DT_INT32"}}}, {"name": "functional_1/res_block_4_cnn_2_batchnorm/Const_1", "op": "Const", "attr": {"value": {"tensor": {"dtype": "DT_INT32", "tensorShape": {"dim": [{"size": "2"}]}}}, "dtype": {"type": "DT_INT32"}}}, {"name": "functional_1/res_block_4_cnn_2_batchnorm/strided_slice_1/stack", "op": "Const", "attr": {"value": {"tensor": {"dtype": "DT_INT32", "tensorShape": {"dim": [{"size": "1"}]}}}, "dtype": {"type": "DT_INT32"}}}, {"name": "functional_1/res_block_4_cnn_2_batchnorm/strided_slice_1/stack_1", "op": "Const", "attr": {"value": {"tensor": {"dtype": "DT_INT32", "tensorShape": {"dim": [{"size": "1"}]}}}, "dtype": {"type": "DT_INT32"}}}, {"name": "functional_1/res_block_4_cnn_2_batchnorm/strided_slice_1/stack_2", "op": "Const", "attr": {"value": {"tensor": {"dtype": "DT_INT32", "tensorShape": {"dim": [{"size": "1"}]}}}, "dtype": {"type": "DT_INT32"}}}, {"name": "functional_1/res_block_4_cnn_2_batchnorm/concat_1/axis", "op": "Const", "attr": {"dtype": {"type": "DT_INT32"}, "value": {"tensor": {"dtype": "DT_INT32", "tensorShape": {}}}}}, {"name": "functional_1/res_block_4_cnn_2_batchnorm/batchnorm/mul", "op": "Const", "attr": {"value": {"tensor": {"dtype": "DT_FLOAT", "tensorShape": {"dim": [{"size": "1"}, {"size": "1"}, {"size": "64"}, {"size": "1"}, {"size": "1"}]}}}, "dtype": {"type": "DT_FLOAT"}}}, {"name": "functional_1/res_block_4_cnn_2_batchnorm/batchnorm/sub", "op": "Const", "attr": {"value": {"tensor": {"dtype": "DT_FLOAT", "tensorShape": {"dim": [{"size": "1"}, {"size": "1"}, {"size": "64"}, {"size": "1"}, {"size": "1"}]}}}, "dtype": {"type": "DT_FLOAT"}}}, {"name": "functional_1/res_block_4_cnn_2_batchnorm/Const", "op": "Const", "attr": {"value": {"tensor": {"dtype": "DT_INT32", "tensorShape": {"dim": [{"size": "1"}]}}}, "dtype": {"type": "DT_INT32"}}}, {"name": "functional_1/res_block_4_cnn_1_batchnorm/Const_1", "op": "Const", "attr": {"value": {"tensor": {"dtype": "DT_INT32", "tensorShape": {"dim": [{"size": "2"}]}}}, "dtype": {"type": "DT_INT32"}}}, {"name": "functional_1/res_block_4_cnn_1_batchnorm/strided_slice_1/stack", "op": "Const", "attr": {"value": {"tensor": {"dtype": "DT_INT32", "tensorShape": {"dim": [{"size": "1"}]}}}, "dtype": {"type": "DT_INT32"}}}, {"name": "functional_1/res_block_4_cnn_1_batchnorm/strided_slice_1/stack_1", "op": "Const", "attr": {"value": {"tensor": {"dtype": "DT_INT32", "tensorShape": {"dim": [{"size": "1"}]}}}, "dtype": {"type": "DT_INT32"}}}, {"name": "functional_1/res_block_4_cnn_1_batchnorm/strided_slice_1/stack_2", "op": "Const", "attr": {"dtype": {"type": "DT_INT32"}, "value": {"tensor": {"dtype": "DT_INT32", "tensorShape": {"dim": [{"size": "1"}]}}}}}, {"name": "functional_1/res_block_4_cnn_1_batchnorm/concat_1/axis", "op": "Const", "attr": {"value": {"tensor": {"dtype": "DT_INT32", "tensorShape": {}}}, "dtype": {"type": "DT_INT32"}}}, {"name": "functional_1/res_block_4_cnn_1_batchnorm/batchnorm/Rsqrt", "op": "Const", "attr": {"value": {"tensor": {"dtype": "DT_FLOAT", "tensorShape": {"dim": [{"size": "1"}, {"size": "1"}, {"size": "64"}, {"size": "1"}, {"size": "1"}]}}}, "dtype": {"type": "DT_FLOAT"}}}, {"name": "functional_1/res_block_4_cnn_1_batchnorm/batchnorm/sub", "op": "Const", "attr": {"value": {"tensor": {"dtype": "DT_FLOAT", "tensorShape": {"dim": [{"size": "1"}, {"size": "1"}, {"size": "64"}, {"size": "1"}, {"size": "1"}]}}}, "dtype": {"type": "DT_FLOAT"}}}, {"name": "functional_1/res_block_4_cnn_1_batchnorm/Const", "op": "Const", "attr": {"value": {"tensor": {"dtype": "DT_INT32", "tensorShape": {"dim": [{"size": "1"}]}}}, "dtype": {"type": "DT_INT32"}}}, {"name": "functional_1/apply_squeeze_excitation_3/split/split_dim", "op": "Const", "attr": {"value": {"tensor": {"dtype": "DT_INT32", "tensorShape": {}}}, "dtype": {"type": "DT_INT32"}}}, {"name": "functional_1/global_average_pooling2d_3/Mean/reduction_indices", "op": "Const", "attr": {"value": {"tensor": {"dtype": "DT_INT32", "tensorShape": {"dim": [{"size": "2"}]}}}, "dtype": {"type": "DT_INT32"}}}, {"name": "functional_1/res_block_3_squeeze/MatMul/ReadVariableOp/resource", "op": "Const", "attr": {"value": {"tensor": {"dtype": "DT_FLOAT", "tensorShape": {"dim": [{"size": "64"}, {"size": "8"}]}}}, "dtype": {"type": "DT_FLOAT"}}}, {"name": "functional_1/res_block_3_squeeze/BiasAdd/ReadVariableOp/resource", "op": "Const", "attr": {"dtype": {"type": "DT_FLOAT"}, "value": {"tensor": {"dtype": "DT_FLOAT", "tensorShape": {"dim": [{"size": "8"}]}}}}}, {"name": "functional_1/res_block_3_excited/MatMul/ReadVariableOp/resource", "op": "Const", "attr": {"value": {"tensor": {"dtype": "DT_FLOAT", "tensorShape": {"dim": [{"size": "8"}, {"size": "128"}]}}}, "dtype": {"type": "DT_FLOAT"}}}, {"name": "functional_1/res_block_3_excited/BiasAdd/ReadVariableOp/resource", "op": "Const", "attr": {"value": {"tensor": {"dtype": "DT_FLOAT", "tensorShape": {"dim": [{"size": "128"}]}}}, "dtype": {"type": "DT_FLOAT"}}}, {"name": "functional_1/apply_squeeze_excitation_3/Reshape/shape", "op": "Const", "attr": {"value": {"tensor": {"dtype": "DT_INT32", "tensorShape": {"dim": [{"size": "4"}]}}}, "dtype": {"type": "DT_INT32"}}}, {"name": "functional_1/res_block_3_cnn_2_batchnorm/Const_1", "op": "Const", "attr": {"value": {"tensor": {"dtype": "DT_INT32", "tensorShape": {"dim": [{"size": "2"}]}}}, "dtype": {"type": "DT_INT32"}}}, {"name": "functional_1/res_block_3_cnn_2_batchnorm/strided_slice_1/stack", "op": "Const", "attr": {"value": {"tensor": {"dtype": "DT_INT32", "tensorShape": {"dim": [{"size": "1"}]}}}, "dtype": {"type": "DT_INT32"}}}, {"name": "functional_1/res_block_3_cnn_2_batchnorm/strided_slice_1/stack_1", "op": "Const", "attr": {"value": {"tensor": {"dtype": "DT_INT32", "tensorShape": {"dim": [{"size": "1"}]}}}, "dtype": {"type": "DT_INT32"}}}, {"name": "functional_1/res_block_3_cnn_2_batchnorm/strided_slice_1/stack_2", "op": "Const", "attr": {"value": {"tensor": {"dtype": "DT_INT32", "tensorShape": {"dim": [{"size": "1"}]}}}, "dtype": {"type": "DT_INT32"}}}, {"name": "functional_1/res_block_3_cnn_2_batchnorm/concat_1/axis", "op": "Const", "attr": {"value": {"tensor": {"dtype": "DT_INT32", "tensorShape": {}}}, "dtype": {"type": "DT_INT32"}}}, {"name": "functional_1/res_block_3_cnn_2_batchnorm/batchnorm/mul", "op": "Const", "attr": {"value": {"tensor": {"dtype": "DT_FLOAT", "tensorShape": {"dim": [{"size": "1"}, {"size": "1"}, {"size": "64"}, {"size": "1"}, {"size": "1"}]}}}, "dtype": {"type": "DT_FLOAT"}}}, {"name": "functional_1/res_block_3_cnn_2_batchnorm/batchnorm/sub", "op": "Const", "attr": {"value": {"tensor": {"dtype": "DT_FLOAT", "tensorShape": {"dim": [{"size": "1"}, {"size": "1"}, {"size": "64"}, {"size": "1"}, {"size": "1"}]}}}, "dtype": {"type": "DT_FLOAT"}}}, {"name": "functional_1/res_block_3_cnn_2_batchnorm/Const", "op": "Const", "attr": {"value": {"tensor": {"dtype": "DT_INT32", "tensorShape": {"dim": [{"size": "1"}]}}}, "dtype": {"type": "DT_INT32"}}}, {"name": "functional_1/res_block_3_cnn_1_batchnorm/Const_1", "op": "Const", "attr": {"value": {"tensor": {"dtype": "DT_INT32", "tensorShape": {"dim": [{"size": "2"}]}}}, "dtype": {"type": "DT_INT32"}}}, {"name": "functional_1/res_block_3_cnn_1_batchnorm/strided_slice_1/stack", "op": "Const", "attr": {"value": {"tensor": {"dtype": "DT_INT32", "tensorShape": {"dim": [{"size": "1"}]}}}, "dtype": {"type": "DT_INT32"}}}, {"name": "functional_1/res_block_3_cnn_1_batchnorm/strided_slice_1/stack_1", "op": "Const", "attr": {"value": {"tensor": {"dtype": "DT_INT32", "tensorShape": {"dim": [{"size": "1"}]}}}, "dtype": {"type": "DT_INT32"}}}, {"name": "functional_1/res_block_3_cnn_1_batchnorm/strided_slice_1/stack_2", "op": "Const", "attr": {"value": {"tensor": {"dtype": "DT_INT32", "tensorShape": {"dim": [{"size": "1"}]}}}, "dtype": {"type": "DT_INT32"}}}, {"name": "functional_1/res_block_3_cnn_1_batchnorm/concat_1/axis", "op": "Const", "attr": {"value": {"tensor": {"dtype": "DT_INT32", "tensorShape": {}}}, "dtype": {"type": "DT_INT32"}}}, {"name": "functional_1/res_block_3_cnn_1_batchnorm/batchnorm/Rsqrt", "op": "Const", "attr": {"value": {"tensor": {"dtype": "DT_FLOAT", "tensorShape": {"dim": [{"size": "1"}, {"size": "1"}, {"size": "64"}, {"size": "1"}, {"size": "1"}]}}}, "dtype": {"type": "DT_FLOAT"}}}, {"name": "functional_1/res_block_3_cnn_1_batchnorm/batchnorm/sub", "op": "Const", "attr": {"value": {"tensor": {"dtype": "DT_FLOAT", "tensorShape": {"dim": [{"size": "1"}, {"size": "1"}, {"size": "64"}, {"size": "1"}, {"size": "1"}]}}}, "dtype": {"type": "DT_FLOAT"}}}, {"name": "functional_1/res_block_3_cnn_1_batchnorm/Const", "op": "Const", "attr": {"value": {"tensor": {"dtype": "DT_INT32", "tensorShape": {"dim": [{"size": "1"}]}}}, "dtype": {"type": "DT_INT32"}}}, {"name": "functional_1/apply_squeeze_excitation_2/split/split_dim", "op": "Const", "attr": {"value": {"tensor": {"dtype": "DT_INT32", "tensorShape": {}}}, "dtype": {"type": "DT_INT32"}}}, {"name": "functional_1/global_average_pooling2d_2/Mean/reduction_indices", "op": "Const", "attr": {"value": {"tensor": {"dtype": "DT_INT32", "tensorShape": {"dim": [{"size": "2"}]}}}, "dtype": {"type": "DT_INT32"}}}, {"name": "functional_1/res_block_2_squeeze/MatMul/ReadVariableOp/resource", "op": "Const", "attr": {"dtype": {"type": "DT_FLOAT"}, "value": {"tensor": {"dtype": "DT_FLOAT", "tensorShape": {"dim": [{"size": "64"}, {"size": "8"}]}}}}}, {"name": "functional_1/res_block_2_squeeze/BiasAdd/ReadVariableOp/resource", "op": "Const", "attr": {"value": {"tensor": {"dtype": "DT_FLOAT", "tensorShape": {"dim": [{"size": "8"}]}}}, "dtype": {"type": "DT_FLOAT"}}}, {"name": "functional_1/res_block_2_excited/MatMul/ReadVariableOp/resource", "op": "Const", "attr": {"value": {"tensor": {"dtype": "DT_FLOAT", "tensorShape": {"dim": [{"size": "8"}, {"size": "128"}]}}}, "dtype": {"type": "DT_FLOAT"}}}, {"name": "functional_1/res_block_2_excited/BiasAdd/ReadVariableOp/resource", "op": "Const", "attr": {"value": {"tensor": {"dtype": "DT_FLOAT", "tensorShape": {"dim": [{"size": "128"}]}}}, "dtype": {"type": "DT_FLOAT"}}}, {"name": "functional_1/apply_squeeze_excitation_2/Reshape/shape", "op": "Const", "attr": {"value": {"tensor": {"dtype": "DT_INT32", "tensorShape": {"dim": [{"size": "4"}]}}}, "dtype": {"type": "DT_INT32"}}}, {"name": "functional_1/res_block_2_cnn_2_batchnorm/Const_1", "op": "Const", "attr": {"value": {"tensor": {"dtype": "DT_INT32", "tensorShape": {"dim": [{"size": "2"}]}}}, "dtype": {"type": "DT_INT32"}}}, {"name": "functional_1/res_block_2_cnn_2_batchnorm/strided_slice_1/stack", "op": "Const", "attr": {"value": {"tensor": {"dtype": "DT_INT32", "tensorShape": {"dim": [{"size": "1"}]}}}, "dtype": {"type": "DT_INT32"}}}, {"name": "functional_1/res_block_2_cnn_2_batchnorm/strided_slice_1/stack_1", "op": "Const", "attr": {"value": {"tensor": {"dtype": "DT_INT32", "tensorShape": {"dim": [{"size": "1"}]}}}, "dtype": {"type": "DT_INT32"}}}, {"name": "functional_1/res_block_2_cnn_2_batchnorm/strided_slice_1/stack_2", "op": "Const", "attr": {"value": {"tensor": {"dtype": "DT_INT32", "tensorShape": {"dim": [{"size": "1"}]}}}, "dtype": {"type": "DT_INT32"}}}, {"name": "functional_1/res_block_2_cnn_2_batchnorm/concat_1/axis", "op": "Const", "attr": {"value": {"tensor": {"dtype": "DT_INT32", "tensorShape": {}}}, "dtype": {"type": "DT_INT32"}}}, {"name": "functional_1/res_block_2_cnn_2_batchnorm/batchnorm/mul", "op": "Const", "attr": {"value": {"tensor": {"dtype": "DT_FLOAT", "tensorShape": {"dim": [{"size": "1"}, {"size": "1"}, {"size": "64"}, {"size": "1"}, {"size": "1"}]}}}, "dtype": {"type": "DT_FLOAT"}}}, {"name": "functional_1/res_block_2_cnn_2_batchnorm/batchnorm/sub", "op": "Const", "attr": {"value": {"tensor": {"dtype": "DT_FLOAT", "tensorShape": {"dim": [{"size": "1"}, {"size": "1"}, {"size": "64"}, {"size": "1"}, {"size": "1"}]}}}, "dtype": {"type": "DT_FLOAT"}}}, {"name": "functional_1/res_block_2_cnn_2_batchnorm/Const", "op": "Const", "attr": {"value": {"tensor": {"dtype": "DT_INT32", "tensorShape": {"dim": [{"size": "1"}]}}}, "dtype": {"type": "DT_INT32"}}}, {"name": "functional_1/res_block_2_cnn_1_batchnorm/Const_1", "op": "Const", "attr": {"value": {"tensor": {"dtype": "DT_INT32", "tensorShape": {"dim": [{"size": "2"}]}}}, "dtype": {"type": "DT_INT32"}}}, {"name": "functional_1/res_block_2_cnn_1_batchnorm/strided_slice_1/stack", "op": "Const", "attr": {"value": {"tensor": {"dtype": "DT_INT32", "tensorShape": {"dim": [{"size": "1"}]}}}, "dtype": {"type": "DT_INT32"}}}, {"name": "functional_1/res_block_2_cnn_1_batchnorm/strided_slice_1/stack_1", "op": "Const", "attr": {"value": {"tensor": {"dtype": "DT_INT32", "tensorShape": {"dim": [{"size": "1"}]}}}, "dtype": {"type": "DT_INT32"}}}, {"name": "functional_1/res_block_2_cnn_1_batchnorm/strided_slice_1/stack_2", "op": "Const", "attr": {"value": {"tensor": {"dtype": "DT_INT32", "tensorShape": {"dim": [{"size": "1"}]}}}, "dtype": {"type": "DT_INT32"}}}, {"name": "functional_1/res_block_2_cnn_1_batchnorm/concat_1/axis", "op": "Const", "attr": {"value": {"tensor": {"dtype": "DT_INT32", "tensorShape": {}}}, "dtype": {"type": "DT_INT32"}}}, {"name": "functional_1/res_block_2_cnn_1_batchnorm/batchnorm/Rsqrt", "op": "Const", "attr": {"value": {"tensor": {"dtype": "DT_FLOAT", "tensorShape": {"dim": [{"size": "1"}, {"size": "1"}, {"size": "64"}, {"size": "1"}, {"size": "1"}]}}}, "dtype": {"type": "DT_FLOAT"}}}, {"name": "functional_1/res_block_2_cnn_1_batchnorm/batchnorm/sub", "op": "Const", "attr": {"value": {"tensor": {"dtype": "DT_FLOAT", "tensorShape": {"dim": [{"size": "1"}, {"size": "1"}, {"size": "64"}, {"size": "1"}, {"size": "1"}]}}}, "dtype": {"type": "DT_FLOAT"}}}, {"name": "functional_1/res_block_2_cnn_1_batchnorm/Const", "op": "Const", "attr": {"value": {"tensor": {"dtype": "DT_INT32", "tensorShape": {"dim": [{"size": "1"}]}}}, "dtype": {"type": "DT_INT32"}}}, {"name": "functional_1/apply_squeeze_excitation_1/split/split_dim", "op": "Const", "attr": {"value": {"tensor": {"dtype": "DT_INT32", "tensorShape": {}}}, "dtype": {"type": "DT_INT32"}}}, {"name": "functional_1/global_average_pooling2d_1/Mean/reduction_indices", "op": "Const", "attr": {"value": {"tensor": {"dtype": "DT_INT32", "tensorShape": {"dim": [{"size": "2"}]}}}, "dtype": {"type": "DT_INT32"}}}, {"name": "functional_1/res_block_1_squeeze/MatMul/ReadVariableOp/resource", "op": "Const", "attr": {"value": {"tensor": {"dtype": "DT_FLOAT", "tensorShape": {"dim": [{"size": "64"}, {"size": "8"}]}}}, "dtype": {"type": "DT_FLOAT"}}}, {"name": "functional_1/res_block_1_squeeze/BiasAdd/ReadVariableOp/resource", "op": "Const", "attr": {"value": {"tensor": {"dtype": "DT_FLOAT", "tensorShape": {"dim": [{"size": "8"}]}}}, "dtype": {"type": "DT_FLOAT"}}}, {"name": "functional_1/res_block_1_excited/MatMul/ReadVariableOp/resource", "op": "Const", "attr": {"value": {"tensor": {"dtype": "DT_FLOAT", "tensorShape": {"dim": [{"size": "8"}, {"size": "128"}]}}}, "dtype": {"type": "DT_FLOAT"}}}, {"name": "functional_1/res_block_1_excited/BiasAdd/ReadVariableOp/resource", "op": "Const", "attr": {"dtype": {"type": "DT_FLOAT"}, "value": {"tensor": {"dtype": "DT_FLOAT", "tensorShape": {"dim": [{"size": "128"}]}}}}}, {"name": "functional_1/apply_squeeze_excitation_1/Reshape/shape", "op": "Const", "attr": {"value": {"tensor": {"dtype": "DT_INT32", "tensorShape": {"dim": [{"size": "4"}]}}}, "dtype": {"type": "DT_INT32"}}}, {"name": "functional_1/res_block_1_cnn_2_batchnorm/Const_1", "op": "Const", "attr": {"dtype": {"type": "DT_INT32"}, "value": {"tensor": {"dtype": "DT_INT32", "tensorShape": {"dim": [{"size": "2"}]}}}}}, {"name": "functional_1/res_block_1_cnn_2_batchnorm/strided_slice_1/stack", "op": "Const", "attr": {"dtype": {"type": "DT_INT32"}, "value": {"tensor": {"dtype": "DT_INT32", "tensorShape": {"dim": [{"size": "1"}]}}}}}, {"name": "functional_1/res_block_1_cnn_2_batchnorm/strided_slice_1/stack_1", "op": "Const", "attr": {"value": {"tensor": {"dtype": "DT_INT32", "tensorShape": {"dim": [{"size": "1"}]}}}, "dtype": {"type": "DT_INT32"}}}, {"name": "functional_1/res_block_1_cnn_2_batchnorm/strided_slice_1/stack_2", "op": "Const", "attr": {"value": {"tensor": {"dtype": "DT_INT32", "tensorShape": {"dim": [{"size": "1"}]}}}, "dtype": {"type": "DT_INT32"}}}, {"name": "functional_1/res_block_1_cnn_2_batchnorm/concat_1/axis", "op": "Const", "attr": {"value": {"tensor": {"dtype": "DT_INT32", "tensorShape": {}}}, "dtype": {"type": "DT_INT32"}}}, {"name": "functional_1/res_block_1_cnn_2_batchnorm/batchnorm/mul", "op": "Const", "attr": {"value": {"tensor": {"dtype": "DT_FLOAT", "tensorShape": {"dim": [{"size": "1"}, {"size": "1"}, {"size": "64"}, {"size": "1"}, {"size": "1"}]}}}, "dtype": {"type": "DT_FLOAT"}}}, {"name": "functional_1/res_block_1_cnn_2_batchnorm/batchnorm/sub", "op": "Const", "attr": {"value": {"tensor": {"dtype": "DT_FLOAT", "tensorShape": {"dim": [{"size": "1"}, {"size": "1"}, {"size": "64"}, {"size": "1"}, {"size": "1"}]}}}, "dtype": {"type": "DT_FLOAT"}}}, {"name": "functional_1/res_block_1_cnn_2_batchnorm/Const", "op": "Const", "attr": {"value": {"tensor": {"dtype": "DT_INT32", "tensorShape": {"dim": [{"size": "1"}]}}}, "dtype": {"type": "DT_INT32"}}}, {"name": "functional_1/res_block_1_cnn_1_batchnorm/Const_1", "op": "Const", "attr": {"value": {"tensor": {"dtype": "DT_INT32", "tensorShape": {"dim": [{"size": "2"}]}}}, "dtype": {"type": "DT_INT32"}}}, {"name": "functional_1/res_block_1_cnn_1_batchnorm/strided_slice_1/stack", "op": "Const", "attr": {"value": {"tensor": {"dtype": "DT_INT32", "tensorShape": {"dim": [{"size": "1"}]}}}, "dtype": {"type": "DT_INT32"}}}, {"name": "functional_1/res_block_1_cnn_1_batchnorm/strided_slice_1/stack_1", "op": "Const", "attr": {"value": {"tensor": {"dtype": "DT_INT32", "tensorShape": {"dim": [{"size": "1"}]}}}, "dtype": {"type": "DT_INT32"}}}, {"name": "functional_1/res_block_1_cnn_1_batchnorm/strided_slice_1/stack_2", "op": "Const", "attr": {"value": {"tensor": {"dtype": "DT_INT32", "tensorShape": {"dim": [{"size": "1"}]}}}, "dtype": {"type": "DT_INT32"}}}, {"name": "functional_1/res_block_1_cnn_1_batchnorm/concat_1/axis", "op": "Const", "attr": {"value": {"tensor": {"dtype": "DT_INT32", "tensorShape": {}}}, "dtype": {"type": "DT_INT32"}}}, {"name": "functional_1/res_block_1_cnn_1_batchnorm/batchnorm/Rsqrt", "op": "Const", "attr": {"dtype": {"type": "DT_FLOAT"}, "value": {"tensor": {"dtype": "DT_FLOAT", "tensorShape": {"dim": [{"size": "1"}, {"size": "1"}, {"size": "64"}, {"size": "1"}, {"size": "1"}]}}}}}, {"name": "functional_1/res_block_1_cnn_1_batchnorm/batchnorm/sub", "op": "Const", "attr": {"value": {"tensor": {"dtype": "DT_FLOAT", "tensorShape": {"dim": [{"size": "1"}, {"size": "1"}, {"size": "64"}, {"size": "1"}, {"size": "1"}]}}}, "dtype": {"type": "DT_FLOAT"}}}, {"name": "functional_1/res_block_1_cnn_1_batchnorm/Const", "op": "Const", "attr": {"value": {"tensor": {"dtype": "DT_INT32", "tensorShape": {"dim": [{"size": "1"}]}}}, "dtype": {"type": "DT_INT32"}}}, {"name": "functional_1/apply_squeeze_excitation/split/split_dim", "op": "Const", "attr": {"value": {"tensor": {"dtype": "DT_INT32", "tensorShape": {}}}, "dtype": {"type": "DT_INT32"}}}, {"name": "functional_1/global_average_pooling2d/Mean/reduction_indices", "op": "Const", "attr": {"value": {"tensor": {"dtype": "DT_INT32", "tensorShape": {"dim": [{"size": "2"}]}}}, "dtype": {"type": "DT_INT32"}}}, {"name": "functional_1/res_block_0_squeeze/MatMul/ReadVariableOp/resource", "op": "Const", "attr": {"value": {"tensor": {"dtype": "DT_FLOAT", "tensorShape": {"dim": [{"size": "64"}, {"size": "8"}]}}}, "dtype": {"type": "DT_FLOAT"}}}, {"name": "functional_1/res_block_0_squeeze/BiasAdd/ReadVariableOp/resource", "op": "Const", "attr": {"value": {"tensor": {"dtype": "DT_FLOAT", "tensorShape": {"dim": [{"size": "8"}]}}}, "dtype": {"type": "DT_FLOAT"}}}, {"name": "functional_1/res_block_0_excited/MatMul/ReadVariableOp/resource", "op": "Const", "attr": {"value": {"tensor": {"dtype": "DT_FLOAT", "tensorShape": {"dim": [{"size": "8"}, {"size": "128"}]}}}, "dtype": {"type": "DT_FLOAT"}}}, {"name": "functional_1/res_block_0_excited/BiasAdd/ReadVariableOp/resource", "op": "Const", "attr": {"dtype": {"type": "DT_FLOAT"}, "value": {"tensor": {"dtype": "DT_FLOAT", "tensorShape": {"dim": [{"size": "128"}]}}}}}, {"name": "functional_1/apply_squeeze_excitation/Reshape/shape", "op": "Const", "attr": {"value": {"tensor": {"dtype": "DT_INT32", "tensorShape": {"dim": [{"size": "4"}]}}}, "dtype": {"type": "DT_INT32"}}}, {"name": "functional_1/res_block_0_cnn_2_batchnorm/Const_1", "op": "Const", "attr": {"value": {"tensor": {"dtype": "DT_INT32", "tensorShape": {"dim": [{"size": "2"}]}}}, "dtype": {"type": "DT_INT32"}}}, {"name": "functional_1/res_block_0_cnn_2_batchnorm/strided_slice_1/stack", "op": "Const", "attr": {"value": {"tensor": {"dtype": "DT_INT32", "tensorShape": {"dim": [{"size": "1"}]}}}, "dtype": {"type": "DT_INT32"}}}, {"name": "functional_1/res_block_0_cnn_2_batchnorm/strided_slice_1/stack_1", "op": "Const", "attr": {"dtype": {"type": "DT_INT32"}, "value": {"tensor": {"dtype": "DT_INT32", "tensorShape": {"dim": [{"size": "1"}]}}}}}, {"name": "functional_1/res_block_0_cnn_2_batchnorm/strided_slice_1/stack_2", "op": "Const", "attr": {"value": {"tensor": {"dtype": "DT_INT32", "tensorShape": {"dim": [{"size": "1"}]}}}, "dtype": {"type": "DT_INT32"}}}, {"name": "functional_1/res_block_0_cnn_2_batchnorm/concat_1/axis", "op": "Const", "attr": {"value": {"tensor": {"dtype": "DT_INT32", "tensorShape": {}}}, "dtype": {"type": "DT_INT32"}}}, {"name": "functional_1/res_block_0_cnn_2_batchnorm/batchnorm/mul", "op": "Const", "attr": {"value": {"tensor": {"dtype": "DT_FLOAT", "tensorShape": {"dim": [{"size": "1"}, {"size": "1"}, {"size": "64"}, {"size": "1"}, {"size": "1"}]}}}, "dtype": {"type": "DT_FLOAT"}}}, {"name": "functional_1/res_block_0_cnn_2_batchnorm/batchnorm/sub", "op": "Const", "attr": {"value": {"tensor": {"dtype": "DT_FLOAT", "tensorShape": {"dim": [{"size": "1"}, {"size": "1"}, {"size": "64"}, {"size": "1"}, {"size": "1"}]}}}, "dtype": {"type": "DT_FLOAT"}}}, {"name": "functional_1/res_block_0_cnn_2_batchnorm/Const", "op": "Const", "attr": {"value": {"tensor": {"dtype": "DT_INT32", "tensorShape": {"dim": [{"size": "1"}]}}}, "dtype": {"type": "DT_INT32"}}}, {"name": "functional_1/res_block_0_cnn_1_batchnorm/Const_1", "op": "Const", "attr": {"value": {"tensor": {"dtype": "DT_INT32", "tensorShape": {"dim": [{"size": "2"}]}}}, "dtype": {"type": "DT_INT32"}}}, {"name": "functional_1/res_block_0_cnn_1_batchnorm/strided_slice_1/stack", "op": "Const", "attr": {"value": {"tensor": {"dtype": "DT_INT32", "tensorShape": {"dim": [{"size": "1"}]}}}, "dtype": {"type": "DT_INT32"}}}, {"name": "functional_1/res_block_0_cnn_1_batchnorm/strided_slice_1/stack_1", "op": "Const", "attr": {"value": {"tensor": {"dtype": "DT_INT32", "tensorShape": {"dim": [{"size": "1"}]}}}, "dtype": {"type": "DT_INT32"}}}, {"name": "functional_1/res_block_0_cnn_1_batchnorm/strided_slice_1/stack_2", "op": "Const", "attr": {"value": {"tensor": {"dtype": "DT_INT32", "tensorShape": {"dim": [{"size": "1"}]}}}, "dtype": {"type": "DT_INT32"}}}, {"name": "functional_1/res_block_0_cnn_1_batchnorm/concat_1/axis", "op": "Const", "attr": {"value": {"tensor": {"dtype": "DT_INT32", "tensorShape": {}}}, "dtype": {"type": "DT_INT32"}}}, {"name": "functional_1/res_block_0_cnn_1_batchnorm/batchnorm/Rsqrt", "op": "Const", "attr": {"value": {"tensor": {"dtype": "DT_FLOAT", "tensorShape": {"dim": [{"size": "1"}, {"size": "1"}, {"size": "64"}, {"size": "1"}, {"size": "1"}]}}}, "dtype": {"type": "DT_FLOAT"}}}, {"name": "functional_1/res_block_0_cnn_1_batchnorm/batchnorm/sub", "op": "Const", "attr": {"value": {"tensor": {"dtype": "DT_FLOAT", "tensorShape": {"dim": [{"size": "1"}, {"size": "1"}, {"size": "64"}, {"size": "1"}, {"size": "1"}]}}}, "dtype": {"type": "DT_FLOAT"}}}, {"name": "functional_1/res_block_0_cnn_1_batchnorm/Const", "op": "Const", "attr": {"value": {"tensor": {"dtype": "DT_INT32", "tensorShape": {"dim": [{"size": "1"}]}}}, "dtype": {"type": "DT_INT32"}}}, {"name": "functional_1/input_cnn_batchnorm/Const_1", "op": "Const", "attr": {"value": {"tensor": {"dtype": "DT_INT32", "tensorShape": {"dim": [{"size": "2"}]}}}, "dtype": {"type": "DT_INT32"}}}, {"name": "functional_1/input_cnn_batchnorm/strided_slice_1/stack", "op": "Const", "attr": {"value": {"tensor": {"dtype": "DT_INT32", "tensorShape": {"dim": [{"size": "1"}]}}}, "dtype": {"type": "DT_INT32"}}}, {"name": "functional_1/input_cnn_batchnorm/strided_slice_1/stack_1", "op": "Const", "attr": {"dtype": {"type": "DT_INT32"}, "value": {"tensor": {"dtype": "DT_INT32", "tensorShape": {"dim": [{"size": "1"}]}}}}}, {"name": "functional_1/input_cnn_batchnorm/strided_slice_1/stack_2", "op": "Const", "attr": {"dtype": {"type": "DT_INT32"}, "value": {"tensor": {"dtype": "DT_INT32", "tensorShape": {"dim": [{"size": "1"}]}}}}}, {"name": "functional_1/input_cnn_batchnorm/concat_1/axis", "op": "Const", "attr": {"value": {"tensor": {"dtype": "DT_INT32", "tensorShape": {}}}, "dtype": {"type": "DT_INT32"}}}, {"name": "functional_1/input_cnn_batchnorm/batchnorm/mul", "op": "Const", "attr": {"value": {"tensor": {"dtype": "DT_FLOAT", "tensorShape": {"dim": [{"size": "1"}, {"size": "1"}, {"size": "64"}, {"size": "1"}, {"size": "1"}]}}}, "dtype": {"type": "DT_FLOAT"}}}, {"name": "functional_1/input_cnn_batchnorm/batchnorm/sub", "op": "Const", "attr": {"value": {"tensor": {"dtype": "DT_FLOAT", "tensorShape": {"dim": [{"size": "1"}, {"size": "1"}, {"size": "64"}, {"size": "1"}, {"size": "1"}]}}}, "dtype": {"type": "DT_FLOAT"}}}, {"name": "functional_1/input_cnn_batchnorm/Const", "op": "Const", "attr": {"value": {"tensor": {"dtype": "DT_INT32", "tensorShape": {"dim": [{"size": "1"}]}}}, "dtype": {"type": "DT_INT32"}}}, {"name": "functional_1/reshape/strided_slice/stack", "op": "Const", "attr": {"value": {"tensor": {"dtype": "DT_INT32", "tensorShape": {"dim": [{"size": "1"}]}}}, "dtype": {"type": "DT_INT32"}}}, {"name": "functional_1/reshape/strided_slice/stack_1", "op": "Const", "attr": {"value": {"tensor": {"dtype": "DT_INT32", "tensorShape": {"dim": [{"size": "1"}]}}}, "dtype": {"type": "DT_INT32"}}}, {"name": "functional_1/reshape/strided_slice/stack_2", "op": "Const", "attr": {"dtype": {"type": "DT_INT32"}, "value": {"tensor": {"dtype": "DT_INT32", "tensorShape": {"dim": [{"size": "1"}]}}}}}, {"name": "functional_1/reshape/Reshape/shape/1", "op": "Const", "attr": {"value": {"tensor": {"dtype": "DT_INT32", "tensorShape": {}}}, "dtype": {"type": "DT_INT32"}}}, {"name": "functional_1/reshape/Reshape/shape/2", "op": "Const", "attr": {"value": {"tensor": {"dtype": "DT_INT32", "tensorShape": {}}}, "dtype": {"type": "DT_INT32"}}}, {"name": "functional_1/reshape/Reshape/shape/3", "op": "Const", "attr": {"value": {"tensor": {"dtype": "DT_INT32", "tensorShape": {}}}, "dtype": {"type": "DT_INT32"}}}, {"name": "functional_1/input_cnn/Conv2D/ReadVariableOp/resource", "op": "Const", "attr": {"value": {"tensor": {"dtype": "DT_FLOAT", "tensorShape": {"dim": [{"size": "3"}, {"size": "3"}, {"size": "112"}, {"size": "64"}]}}}, "dtype": {"type": "DT_FLOAT"}}}, {"name": "functional_1/input_cnn_batchnorm/strided_slice/stack", "op": "Const", "attr": {"dtype": {"type": "DT_INT32"}, "value": {"tensor": {"dtype": "DT_INT32", "tensorShape": {"dim": [{"size": "1"}]}}}}}, {"name": "functional_1/input_cnn_batchnorm/strided_slice/stack_1", "op": "Const", "attr": {"value": {"tensor": {"dtype": "DT_INT32", "tensorShape": {"dim": [{"size": "1"}]}}}, "dtype": {"type": "DT_INT32"}}}, {"name": "functional_1/input_cnn_batchnorm/strided_slice/stack_2", "op": "Const", "attr": {"value": {"tensor": {"dtype": "DT_INT32", "tensorShape": {"dim": [{"size": "1"}]}}}, "dtype": {"type": "DT_INT32"}}}, {"name": "functional_1/input_cnn_batchnorm/concat/axis", "op": "Const", "attr": {"value": {"tensor": {"dtype": "DT_INT32", "tensorShape": {}}}, "dtype": {"type": "DT_INT32"}}}, {"name": "functional_1/res_block_0_cnn_1/Conv2D/ReadVariableOp/resource", "op": "Const", "attr": {"value": {"tensor": {"dtype": "DT_FLOAT", "tensorShape": {"dim": [{"size": "3"}, {"size": "3"}, {"size": "64"}, {"size": "64"}]}}}, "dtype": {"type": "DT_FLOAT"}}}, {"name": "functional_1/res_block_0_cnn_1_batchnorm/strided_slice/stack", "op": "Const", "attr": {"value": {"tensor": {"dtype": "DT_INT32", "tensorShape": {"dim": [{"size": "1"}]}}}, "dtype": {"type": "DT_INT32"}}}, {"name": "functional_1/res_block_0_cnn_1_batchnorm/strided_slice/stack_1", "op": "Const", "attr": {"value": {"tensor": {"dtype": "DT_INT32", "tensorShape": {"dim": [{"size": "1"}]}}}, "dtype": {"type": "DT_INT32"}}}, {"name": "functional_1/res_block_0_cnn_1_batchnorm/strided_slice/stack_2", "op": "Const", "attr": {"dtype": {"type": "DT_INT32"}, "value": {"tensor": {"dtype": "DT_INT32", "tensorShape": {"dim": [{"size": "1"}]}}}}}, {"name": "functional_1/res_block_0_cnn_1_batchnorm/concat/axis", "op": "Const", "attr": {"dtype": {"type": "DT_INT32"}, "value": {"tensor": {"dtype": "DT_INT32", "tensorShape": {}}}}}, {"name": "functional_1/res_block_0_cnn_2/Conv2D/ReadVariableOp/resource", "op": "Const", "attr": {"value": {"tensor": {"dtype": "DT_FLOAT", "tensorShape": {"dim": [{"size": "3"}, {"size": "3"}, {"size": "64"}, {"size": "64"}]}}}, "dtype": {"type": "DT_FLOAT"}}}, {"name": "functional_1/res_block_0_cnn_2_batchnorm/strided_slice/stack", "op": "Const", "attr": {"value": {"tensor": {"dtype": "DT_INT32", "tensorShape": {"dim": [{"size": "1"}]}}}, "dtype": {"type": "DT_INT32"}}}, {"name": "functional_1/res_block_0_cnn_2_batchnorm/strided_slice/stack_1", "op": "Const", "attr": {"value": {"tensor": {"dtype": "DT_INT32", "tensorShape": {"dim": [{"size": "1"}]}}}, "dtype": {"type": "DT_INT32"}}}, {"name": "functional_1/res_block_0_cnn_2_batchnorm/strided_slice/stack_2", "op": "Const", "attr": {"value": {"tensor": {"dtype": "DT_INT32", "tensorShape": {"dim": [{"size": "1"}]}}}, "dtype": {"type": "DT_INT32"}}}, {"name": "functional_1/res_block_0_cnn_2_batchnorm/concat/axis", "op": "Const", "attr": {"value": {"tensor": {"dtype": "DT_INT32", "tensorShape": {}}}, "dtype": {"type": "DT_INT32"}}}, {"name": "functional_1/res_block_1_cnn_1/Conv2D/ReadVariableOp/resource", "op": "Const", "attr": {"value": {"tensor": {"dtype": "DT_FLOAT", "tensorShape": {"dim": [{"size": "3"}, {"size": "3"}, {"size": "64"}, {"size": "64"}]}}}, "dtype": {"type": "DT_FLOAT"}}}, {"name": "functional_1/res_block_1_cnn_1_batchnorm/strided_slice/stack", "op": "Const", "attr": {"value": {"tensor": {"dtype": "DT_INT32", "tensorShape": {"dim": [{"size": "1"}]}}}, "dtype": {"type": "DT_INT32"}}}, {"name": "functional_1/res_block_1_cnn_1_batchnorm/strided_slice/stack_1", "op": "Const", "attr": {"value": {"tensor": {"dtype": "DT_INT32", "tensorShape": {"dim": [{"size": "1"}]}}}, "dtype": {"type": "DT_INT32"}}}, {"name": "functional_1/res_block_1_cnn_1_batchnorm/strided_slice/stack_2", "op": "Const", "attr": {"value": {"tensor": {"dtype": "DT_INT32", "tensorShape": {"dim": [{"size": "1"}]}}}, "dtype": {"type": "DT_INT32"}}}, {"name": "functional_1/res_block_1_cnn_1_batchnorm/concat/axis", "op": "Const", "attr": {"value": {"tensor": {"dtype": "DT_INT32", "tensorShape": {}}}, "dtype": {"type": "DT_INT32"}}}, {"name": "functional_1/res_block_1_cnn_2/Conv2D/ReadVariableOp/resource", "op": "Const", "attr": {"value": {"tensor": {"dtype": "DT_FLOAT", "tensorShape": {"dim": [{"size": "3"}, {"size": "3"}, {"size": "64"}, {"size": "64"}]}}}, "dtype": {"type": "DT_FLOAT"}}}, {"name": "functional_1/res_block_1_cnn_2_batchnorm/strided_slice/stack", "op": "Const", "attr": {"dtype": {"type": "DT_INT32"}, "value": {"tensor": {"dtype": "DT_INT32", "tensorShape": {"dim": [{"size": "1"}]}}}}}, {"name": "functional_1/res_block_1_cnn_2_batchnorm/strided_slice/stack_1", "op": "Const", "attr": {"dtype": {"type": "DT_INT32"}, "value": {"tensor": {"dtype": "DT_INT32", "tensorShape": {"dim": [{"size": "1"}]}}}}}, {"name": "functional_1/res_block_1_cnn_2_batchnorm/strided_slice/stack_2", "op": "Const", "attr": {"value": {"tensor": {"dtype": "DT_INT32", "tensorShape": {"dim": [{"size": "1"}]}}}, "dtype": {"type": "DT_INT32"}}}, {"name": "functional_1/res_block_1_cnn_2_batchnorm/concat/axis", "op": "Const", "attr": {"value": {"tensor": {"dtype": "DT_INT32", "tensorShape": {}}}, "dtype": {"type": "DT_INT32"}}}, {"name": "functional_1/res_block_2_cnn_1/Conv2D/ReadVariableOp/resource", "op": "Const", "attr": {"value": {"tensor": {"dtype": "DT_FLOAT", "tensorShape": {"dim": [{"size": "3"}, {"size": "3"}, {"size": "64"}, {"size": "64"}]}}}, "dtype": {"type": "DT_FLOAT"}}}, {"name": "functional_1/res_block_2_cnn_1_batchnorm/strided_slice/stack", "op": "Const", "attr": {"value": {"tensor": {"dtype": "DT_INT32", "tensorShape": {"dim": [{"size": "1"}]}}}, "dtype": {"type": "DT_INT32"}}}, {"name": "functional_1/res_block_2_cnn_1_batchnorm/strided_slice/stack_1", "op": "Const", "attr": {"dtype": {"type": "DT_INT32"}, "value": {"tensor": {"dtype": "DT_INT32", "tensorShape": {"dim": [{"size": "1"}]}}}}}, {"name": "functional_1/res_block_2_cnn_1_batchnorm/strided_slice/stack_2", "op": "Const", "attr": {"value": {"tensor": {"dtype": "DT_INT32", "tensorShape": {"dim": [{"size": "1"}]}}}, "dtype": {"type": "DT_INT32"}}}, {"name": "functional_1/res_block_2_cnn_1_batchnorm/concat/axis", "op": "Const", "attr": {"value": {"tensor": {"dtype": "DT_INT32", "tensorShape": {}}}, "dtype": {"type": "DT_INT32"}}}, {"name": "functional_1/res_block_2_cnn_2/Conv2D/ReadVariableOp/resource", "op": "Const", "attr": {"value": {"tensor": {"dtype": "DT_FLOAT", "tensorShape": {"dim": [{"size": "3"}, {"size": "3"}, {"size": "64"}, {"size": "64"}]}}}, "dtype": {"type": "DT_FLOAT"}}}, {"name": "functional_1/res_block_2_cnn_2_batchnorm/strided_slice/stack", "op": "Const", "attr": {"value": {"tensor": {"dtype": "DT_INT32", "tensorShape": {"dim": [{"size": "1"}]}}}, "dtype": {"type": "DT_INT32"}}}, {"name": "functional_1/res_block_2_cnn_2_batchnorm/strided_slice/stack_1", "op": "Const", "attr": {"value": {"tensor": {"dtype": "DT_INT32", "tensorShape": {"dim": [{"size": "1"}]}}}, "dtype": {"type": "DT_INT32"}}}, {"name": "functional_1/res_block_2_cnn_2_batchnorm/strided_slice/stack_2", "op": "Const", "attr": {"value": {"tensor": {"dtype": "DT_INT32", "tensorShape": {"dim": [{"size": "1"}]}}}, "dtype": {"type": "DT_INT32"}}}, {"name": "functional_1/res_block_2_cnn_2_batchnorm/concat/axis", "op": "Const", "attr": {"dtype": {"type": "DT_INT32"}, "value": {"tensor": {"dtype": "DT_INT32", "tensorShape": {}}}}}, {"name": "functional_1/res_block_3_cnn_1/Conv2D/ReadVariableOp/resource", "op": "Const", "attr": {"value": {"tensor": {"dtype": "DT_FLOAT", "tensorShape": {"dim": [{"size": "3"}, {"size": "3"}, {"size": "64"}, {"size": "64"}]}}}, "dtype": {"type": "DT_FLOAT"}}}, {"name": "functional_1/res_block_3_cnn_1_batchnorm/strided_slice/stack", "op": "Const", "attr": {"value": {"tensor": {"dtype": "DT_INT32", "tensorShape": {"dim": [{"size": "1"}]}}}, "dtype": {"type": "DT_INT32"}}}, {"name": "functional_1/res_block_3_cnn_1_batchnorm/strided_slice/stack_1", "op": "Const", "attr": {"value": {"tensor": {"dtype": "DT_INT32", "tensorShape": {"dim": [{"size": "1"}]}}}, "dtype": {"type": "DT_INT32"}}}, {"name": "functional_1/res_block_3_cnn_1_batchnorm/strided_slice/stack_2", "op": "Const", "attr": {"value": {"tensor": {"dtype": "DT_INT32", "tensorShape": {"dim": [{"size": "1"}]}}}, "dtype": {"type": "DT_INT32"}}}, {"name": "functional_1/res_block_3_cnn_1_batchnorm/concat/axis", "op": "Const", "attr": {"value": {"tensor": {"dtype": "DT_INT32", "tensorShape": {}}}, "dtype": {"type": "DT_INT32"}}}, {"name": "functional_1/res_block_3_cnn_2/Conv2D/ReadVariableOp/resource", "op": "Const", "attr": {"value": {"tensor": {"dtype": "DT_FLOAT", "tensorShape": {"dim": [{"size": "3"}, {"size": "3"}, {"size": "64"}, {"size": "64"}]}}}, "dtype": {"type": "DT_FLOAT"}}}, {"name": "functional_1/res_block_3_cnn_2_batchnorm/strided_slice/stack", "op": "Const", "attr": {"value": {"tensor": {"dtype": "DT_INT32", "tensorShape": {"dim": [{"size": "1"}]}}}, "dtype": {"type": "DT_INT32"}}}, {"name": "functional_1/res_block_3_cnn_2_batchnorm/strided_slice/stack_1", "op": "Const", "attr": {"value": {"tensor": {"dtype": "DT_INT32", "tensorShape": {"dim": [{"size": "1"}]}}}, "dtype": {"type": "DT_INT32"}}}, {"name": "functional_1/res_block_3_cnn_2_batchnorm/strided_slice/stack_2", "op": "Const", "attr": {"value": {"tensor": {"dtype": "DT_INT32", "tensorShape": {"dim": [{"size": "1"}]}}}, "dtype": {"type": "DT_INT32"}}}, {"name": "functional_1/res_block_3_cnn_2_batchnorm/concat/axis", "op": "Const", "attr": {"value": {"tensor": {"dtype": "DT_INT32", "tensorShape": {}}}, "dtype": {"type": "DT_INT32"}}}, {"name": "functional_1/res_block_4_cnn_1/Conv2D/ReadVariableOp/resource", "op": "Const", "attr": {"value": {"tensor": {"dtype": "DT_FLOAT", "tensorShape": {"dim": [{"size": "3"}, {"size": "3"}, {"size": "64"}, {"size": "64"}]}}}, "dtype": {"type": "DT_FLOAT"}}}, {"name": "functional_1/res_block_4_cnn_1_batchnorm/strided_slice/stack", "op": "Const", "attr": {"value": {"tensor": {"dtype": "DT_INT32", "tensorShape": {"dim": [{"size": "1"}]}}}, "dtype": {"type": "DT_INT32"}}}, {"name": "functional_1/res_block_4_cnn_1_batchnorm/strided_slice/stack_1", "op": "Const", "attr": {"value": {"tensor": {"dtype": "DT_INT32", "tensorShape": {"dim": [{"size": "1"}]}}}, "dtype": {"type": "DT_INT32"}}}, {"name": "functional_1/res_block_4_cnn_1_batchnorm/strided_slice/stack_2", "op": "Const", "attr": {"dtype": {"type": "DT_INT32"}, "value": {"tensor": {"dtype": "DT_INT32", "tensorShape": {"dim": [{"size": "1"}]}}}}}, {"name": "functional_1/res_block_4_cnn_1_batchnorm/concat/axis", "op": "Const", "attr": {"value": {"tensor": {"dtype": "DT_INT32", "tensorShape": {}}}, "dtype": {"type": "DT_INT32"}}}, {"name": "functional_1/res_block_4_cnn_2/Conv2D/ReadVariableOp/resource", "op": "Const", "attr": {"value": {"tensor": {"dtype": "DT_FLOAT", "tensorShape": {"dim": [{"size": "3"}, {"size": "3"}, {"size": "64"}, {"size": "64"}]}}}, "dtype": {"type": "DT_FLOAT"}}}, {"name": "functional_1/res_block_4_cnn_2_batchnorm/strided_slice/stack", "op": "Const", "attr": {"value": {"tensor": {"dtype": "DT_INT32", "tensorShape": {"dim": [{"size": "1"}]}}}, "dtype": {"type": "DT_INT32"}}}, {"name": "functional_1/res_block_4_cnn_2_batchnorm/strided_slice/stack_1", "op": "Const", "attr": {"value": {"tensor": {"dtype": "DT_INT32", "tensorShape": {"dim": [{"size": "1"}]}}}, "dtype": {"type": "DT_INT32"}}}, {"name": "functional_1/res_block_4_cnn_2_batchnorm/strided_slice/stack_2", "op": "Const", "attr": {"value": {"tensor": {"dtype": "DT_INT32", "tensorShape": {"dim": [{"size": "1"}]}}}, "dtype": {"type": "DT_INT32"}}}, {"name": "functional_1/res_block_4_cnn_2_batchnorm/concat/axis", "op": "Const", "attr": {"value": {"tensor": {"dtype": "DT_INT32", "tensorShape": {}}}, "dtype": {"type": "DT_INT32"}}}, {"name": "functional_1/res_block_5_cnn_1/Conv2D/ReadVariableOp/resource", "op": "Const", "attr": {"value": {"tensor": {"dtype": "DT_FLOAT", "tensorShape": {"dim": [{"size": "3"}, {"size": "3"}, {"size": "64"}, {"size": "64"}]}}}, "dtype": {"type": "DT_FLOAT"}}}, {"name": "functional_1/res_block_5_cnn_1_batchnorm/strided_slice/stack", "op": "Const", "attr": {"value": {"tensor": {"dtype": "DT_INT32", "tensorShape": {"dim": [{"size": "1"}]}}}, "dtype": {"type": "DT_INT32"}}}, {"name": "functional_1/res_block_5_cnn_1_batchnorm/strided_slice/stack_1", "op": "Const", "attr": {"value": {"tensor": {"dtype": "DT_INT32", "tensorShape": {"dim": [{"size": "1"}]}}}, "dtype": {"type": "DT_INT32"}}}, {"name": "functional_1/res_block_5_cnn_1_batchnorm/strided_slice/stack_2", "op": "Const", "attr": {"dtype": {"type": "DT_INT32"}, "value": {"tensor": {"dtype": "DT_INT32", "tensorShape": {"dim": [{"size": "1"}]}}}}}, {"name": "functional_1/res_block_5_cnn_1_batchnorm/concat/axis", "op": "Const", "attr": {"value": {"tensor": {"dtype": "DT_INT32", "tensorShape": {}}}, "dtype": {"type": "DT_INT32"}}}, {"name": "functional_1/res_block_5_cnn_2/Conv2D/ReadVariableOp/resource", "op": "Const", "attr": {"value": {"tensor": {"dtype": "DT_FLOAT", "tensorShape": {"dim": [{"size": "3"}, {"size": "3"}, {"size": "64"}, {"size": "64"}]}}}, "dtype": {"type": "DT_FLOAT"}}}, {"name": "functional_1/res_block_5_cnn_2_batchnorm/strided_slice/stack", "op": "Const", "attr": {"value": {"tensor": {"dtype": "DT_INT32", "tensorShape": {"dim": [{"size": "1"}]}}}, "dtype": {"type": "DT_INT32"}}}, {"name": "functional_1/res_block_5_cnn_2_batchnorm/strided_slice/stack_1", "op": "Const", "attr": {"dtype": {"type": "DT_INT32"}, "value": {"tensor": {"dtype": "DT_INT32", "tensorShape": {"dim": [{"size": "1"}]}}}}}, {"name": "functional_1/res_block_5_cnn_2_batchnorm/strided_slice/stack_2", "op": "Const", "attr": {"value": {"tensor": {"dtype": "DT_INT32", "tensorShape": {"dim": [{"size": "1"}]}}}, "dtype": {"type": "DT_INT32"}}}, {"name": "functional_1/res_block_5_cnn_2_batchnorm/concat/axis", "op": "Const", "attr": {"value": {"tensor": {"dtype": "DT_INT32", "tensorShape": {}}}, "dtype": {"type": "DT_INT32"}}}, {"name": "functional_1/policy_cnn_1/Conv2D/ReadVariableOp/resource", "op": "Const", "attr": {"value": {"tensor": {"dtype": "DT_FLOAT", "tensorShape": {"dim": [{"size": "3"}, {"size": "3"}, {"size": "64"}, {"size": "64"}]}}}, "dtype": {"type": "DT_FLOAT"}}}, {"name": "functional_1/policy_cnn_1_batchnorm/strided_slice/stack", "op": "Const", "attr": {"value": {"tensor": {"dtype": "DT_INT32", "tensorShape": {"dim": [{"size": "1"}]}}}, "dtype": {"type": "DT_INT32"}}}, {"name": "functional_1/policy_cnn_1_batchnorm/strided_slice/stack_1", "op": "Const", "attr": {"value": {"tensor": {"dtype": "DT_INT32", "tensorShape": {"dim": [{"size": "1"}]}}}, "dtype": {"type": "DT_INT32"}}}, {"name": "functional_1/policy_cnn_1_batchnorm/strided_slice/stack_2", "op": "Const", "attr": {"value": {"tensor": {"dtype": "DT_INT32", "tensorShape": {"dim": [{"size": "1"}]}}}, "dtype": {"type": "DT_INT32"}}}, {"name": "functional_1/policy_cnn_1_batchnorm/concat/axis", "op": "Const", "attr": {"value": {"tensor": {"dtype": "DT_INT32", "tensorShape": {}}}, "dtype": {"type": "DT_INT32"}}}, {"name": "functional_1/policy_cnn_2/Conv2D/ReadVariableOp/resource", "op": "Const", "attr": {"value": {"tensor": {"dtype": "DT_FLOAT", "tensorShape": {"dim": [{"size": "3"}, {"size": "3"}, {"size": "64"}, {"size": "80"}]}}}, "dtype": {"type": "DT_FLOAT"}}}, {"name": "functional_1/policy_cnn_2/BiasAdd/ReadVariableOp/resource", "op": "Const", "attr": {"value": {"tensor": {"dtype": "DT_FLOAT", "tensorShape": {"dim": [{"size": "80"}]}}}, "dtype": {"type": "DT_FLOAT"}}}, {"name": "functional_1/apply_policy_map/Reshape/shape", "op": "Const", "attr": {"value": {"tensor": {"dtype": "DT_INT32", "tensorShape": {"dim": [{"size": "2"}]}}}, "dtype": {"type": "DT_INT32"}}}, {"name": "functional_1/apply_policy_map/MatMul/b", "op": "Const", "attr": {"value": {"tensor": {"dtype": "DT_FLOAT", "tensorShape": {"dim": [{"size": "5120"}, {"size": "1858"}]}}}, "dtype": {"type": "DT_FLOAT"}}}, {"name": "x", "op": "Placeholder", "attr": {"shape": {"shape": {"dim": [{"size": "-1"}, {"size": "112"}, {"size": "64"}]}}, "dtype": {"type": "DT_FLOAT"}}}, {"name": "functional_1/reshape/Shape", "op": "Shape", "input": ["x"], "attr": {"T": {"type": "DT_FLOAT"}, "out_type": {"type": "DT_INT32"}}}, {"name": "functional_1/reshape/strided_slice", "op": "StridedSlice", "input": ["functional_1/reshape/Shape", "functional_1/reshape/strided_slice/stack", "functional_1/reshape/strided_slice/stack_1", "functional_1/reshape/strided_slice/stack_2"], "attr": {"shrink_axis_mask": {"i": "1"}, "ellipsis_mask": {"i": "0"}, "begin_mask": {"i": "0"}, "new_axis_mask": {"i": "0"}, "end_mask": {"i": "0"}, "Index": {"type": "DT_INT32"}, "T": {"type": "DT_INT32"}}}, {"name": "functional_1/reshape/Reshape/shape", "op": "Pack", "input": ["functional_1/reshape/strided_slice", "functional_1/reshape/Reshape/shape/1", "functional_1/reshape/Reshape/shape/2", "functional_1/reshape/Reshape/shape/3"], "attr": {"T": {"type": "DT_INT32"}, "axis": {"i": "0"}, "N": {"i": "4"}}}, {"name": "functional_1/reshape/Reshape", "op": "Reshape", "input": ["x", "functional_1/reshape/Reshape/shape"], "attr": {"T": {"type": "DT_FLOAT"}, "Tshape": {"type": "DT_INT32"}}}, {"name": "functional_1/input_cnn/Conv2D", "op": "Conv2D", "input": ["functional_1/reshape/Reshape", "functional_1/input_cnn/Conv2D/ReadVariableOp/resource"], "device": "/device:CPU:0", "attr": {"dilations": {"list": {"i": ["1", "1", "1", "1"]}}, "T": {"type": "DT_FLOAT"}, "strides": {"list": {"i": ["1", "1", "1", "1"]}}, "data_format": {"s": "TkNIVw=="}, "explicit_paddings": {"list": {}}, "use_cudnn_on_gpu": {"b": true}, "padding": {"s": "U0FNRQ=="}}}, {"name": "functional_1/input_cnn_batchnorm/Shape", "op": "Shape", "input": ["functional_1/input_cnn/Conv2D"], "attr": {"T": {"type": "DT_FLOAT"}, "out_type": {"type": "DT_INT32"}}}, {"name": "functional_1/input_cnn_batchnorm/strided_slice", "op": "StridedSlice", "input": ["functional_1/input_cnn_batchnorm/Shape", "functional_1/input_cnn_batchnorm/strided_slice/stack", "functional_1/input_cnn_batchnorm/strided_slice/stack_1", "functional_1/input_cnn_batchnorm/strided_slice/stack_2"], "attr": {"ellipsis_mask": {"i": "0"}, "begin_mask": {"i": "0"}, "new_axis_mask": {"i": "0"}, "end_mask": {"i": "1"}, "T": {"type": "DT_INT32"}, "Index": {"type": "DT_INT32"}, "shrink_axis_mask": {"i": "0"}}}, {"name": "functional_1/input_cnn_batchnorm/concat", "op": "ConcatV2", "input": ["functional_1/input_cnn_batchnorm/Const", "functional_1/input_cnn_batchnorm/strided_slice", "functional_1/input_cnn_batchnorm/concat/axis"], "attr": {"T": {"type": "DT_INT32"}, "N": {"i": "2"}, "Tidx": {"type": "DT_INT32"}}}, {"name": "functional_1/input_cnn_batchnorm/strided_slice_1", "op": "StridedSlice", "input": ["functional_1/input_cnn_batchnorm/concat", "functional_1/input_cnn_batchnorm/strided_slice_1/stack", "functional_1/input_cnn_batchnorm/strided_slice_1/stack_1", "functional_1/input_cnn_batchnorm/strided_slice_1/stack_2"], "attr": {"T": {"type": "DT_INT32"}, "Index": {"type": "DT_INT32"}, "shrink_axis_mask": {"i": "0"}, "ellipsis_mask": {"i": "0"}, "begin_mask": {"i": "0"}, "new_axis_mask": {"i": "0"}, "end_mask": {"i": "1"}}}, {"name": "functional_1/input_cnn_batchnorm/concat_1", "op": "ConcatV2", "input": ["functional_1/input_cnn_batchnorm/Const_1", "functional_1/input_cnn_batchnorm/strided_slice_1", "functional_1/input_cnn_batchnorm/concat_1/axis"], "attr": {"Tidx": {"type": "DT_INT32"}, "T": {"type": "DT_INT32"}, "N": {"i": "2"}}}, {"name": "functional_1/input_cnn_batchnorm/Reshape", "op": "Reshape", "input": ["functional_1/input_cnn/Conv2D", "functional_1/input_cnn_batchnorm/concat_1"], "attr": {"T": {"type": "DT_FLOAT"}, "Tshape": {"type": "DT_INT32"}}}, {"name": "functional_1/input_cnn_batchnorm/batchnorm/mul_1", "op": "Mul", "input": ["functional_1/input_cnn_batchnorm/Reshape", "functional_1/input_cnn_batchnorm/batchnorm/mul"], "attr": {"T": {"type": "DT_FLOAT"}}}, {"name": "functional_1/input_cnn_batchnorm/batchnorm/add_1", "op": "AddV2", "input": ["functional_1/input_cnn_batchnorm/batchnorm/mul_1", "functional_1/input_cnn_batchnorm/batchnorm/sub"], "attr": {"T": {"type": "DT_FLOAT"}}}, {"name": "functional_1/input_cnn_batchnorm/Reshape_1", "op": "Reshape", "input": ["functional_1/input_cnn_batchnorm/batchnorm/add_1", "functional_1/input_cnn_batchnorm/concat"], "attr": {"T": {"type": "DT_FLOAT"}, "Tshape": {"type": "DT_INT32"}}}, {"name": "functional_1/activation/Relu", "op": "Relu", "input": ["functional_1/input_cnn_batchnorm/Reshape_1"], "attr": {"T": {"type": "DT_FLOAT"}}}, {"name": "functional_1/res_block_0_cnn_1/Conv2D", "op": "Conv2D", "input": ["functional_1/activation/Relu", "functional_1/res_block_0_cnn_1/Conv2D/ReadVariableOp/resource"], "device": "/device:CPU:0", "attr": {"padding": {"s": "U0FNRQ=="}, "dilations": {"list": {"i": ["1", "1", "1", "1"]}}, "T": {"type": "DT_FLOAT"}, "strides": {"list": {"i": ["1", "1", "1", "1"]}}, "data_format": {"s": "TkNIVw=="}, "use_cudnn_on_gpu": {"b": true}, "explicit_paddings": {"list": {}}}}, {"name": "functional_1/res_block_0_cnn_1_batchnorm/Shape", "op": "Shape", "input": ["functional_1/res_block_0_cnn_1/Conv2D"], "attr": {"T": {"type": "DT_FLOAT"}, "out_type": {"type": "DT_INT32"}}}, {"name": "functional_1/res_block_0_cnn_1_batchnorm/strided_slice", "op": "StridedSlice", "input": ["functional_1/res_block_0_cnn_1_batchnorm/Shape", "functional_1/res_block_0_cnn_1_batchnorm/strided_slice/stack", "functional_1/res_block_0_cnn_1_batchnorm/strided_slice/stack_1", "functional_1/res_block_0_cnn_1_batchnorm/strided_slice/stack_2"], "attr": {"shrink_axis_mask": {"i": "0"}, "ellipsis_mask": {"i": "0"}, "begin_mask": {"i": "0"}, "new_axis_mask": {"i": "0"}, "end_mask": {"i": "1"}, "T": {"type": "DT_INT32"}, "Index": {"type": "DT_INT32"}}}, {"name": "functional_1/res_block_0_cnn_1_batchnorm/concat", "op": "ConcatV2", "input": ["functional_1/res_block_0_cnn_1_batchnorm/Const", "functional_1/res_block_0_cnn_1_batchnorm/strided_slice", "functional_1/res_block_0_cnn_1_batchnorm/concat/axis"], "attr": {"Tidx": {"type": "DT_INT32"}, "T": {"type": "DT_INT32"}, "N": {"i": "2"}}}, {"name": "functional_1/res_block_0_cnn_1_batchnorm/strided_slice_1", "op": "StridedSlice", "input": ["functional_1/res_block_0_cnn_1_batchnorm/concat", "functional_1/res_block_0_cnn_1_batchnorm/strided_slice_1/stack", "functional_1/res_block_0_cnn_1_batchnorm/strided_slice_1/stack_1", "functional_1/res_block_0_cnn_1_batchnorm/strided_slice_1/stack_2"], "attr": {"ellipsis_mask": {"i": "0"}, "begin_mask": {"i": "0"}, "new_axis_mask": {"i": "0"}, "end_mask": {"i": "1"}, "T": {"type": "DT_INT32"}, "Index": {"type": "DT_INT32"}, "shrink_axis_mask": {"i": "0"}}}, {"name": "functional_1/res_block_0_cnn_1_batchnorm/concat_1", "op": "ConcatV2", "input": ["functional_1/res_block_0_cnn_1_batchnorm/Const_1", "functional_1/res_block_0_cnn_1_batchnorm/strided_slice_1", "functional_1/res_block_0_cnn_1_batchnorm/concat_1/axis"], "attr": {"N": {"i": "2"}, "Tidx": {"type": "DT_INT32"}, "T": {"type": "DT_INT32"}}}, {"name": "functional_1/res_block_0_cnn_1_batchnorm/Reshape", "op": "Reshape", "input": ["functional_1/res_block_0_cnn_1/Conv2D", "functional_1/res_block_0_cnn_1_batchnorm/concat_1"], "attr": {"T": {"type": "DT_FLOAT"}, "Tshape": {"type": "DT_INT32"}}}, {"name": "functional_1/res_block_0_cnn_1_batchnorm/batchnorm/mul", "op": "Mul", "input": ["functional_1/res_block_0_cnn_1_batchnorm/Reshape", "functional_1/res_block_0_cnn_1_batchnorm/batchnorm/Rsqrt"], "attr": {"T": {"type": "DT_FLOAT"}}}, {"name": "functional_1/res_block_0_cnn_1_batchnorm/batchnorm/add_1", "op": "AddV2", "input": ["functional_1/res_block_0_cnn_1_batchnorm/batchnorm/mul", "functional_1/res_block_0_cnn_1_batchnorm/batchnorm/sub"], "attr": {"T": {"type": "DT_FLOAT"}}}, {"name": "functional_1/res_block_0_cnn_1_batchnorm/Reshape_1", "op": "Reshape", "input": ["functional_1/res_block_0_cnn_1_batchnorm/batchnorm/add_1", "functional_1/res_block_0_cnn_1_batchnorm/concat"], "attr": {"T": {"type": "DT_FLOAT"}, "Tshape": {"type": "DT_INT32"}}}, {"name": "functional_1/activation_1/Relu", "op": "Relu", "input": ["functional_1/res_block_0_cnn_1_batchnorm/Reshape_1"], "attr": {"T": {"type": "DT_FLOAT"}}}, {"name": "functional_1/res_block_0_cnn_2/Conv2D", "op": "Conv2D", "input": ["functional_1/activation_1/Relu", "functional_1/res_block_0_cnn_2/Conv2D/ReadVariableOp/resource"], "device": "/device:CPU:0", "attr": {"padding": {"s": "U0FNRQ=="}, "dilations": {"list": {"i": ["1", "1", "1", "1"]}}, "T": {"type": "DT_FLOAT"}, "strides": {"list": {"i": ["1", "1", "1", "1"]}}, "data_format": {"s": "TkNIVw=="}, "use_cudnn_on_gpu": {"b": true}, "explicit_paddings": {"list": {}}}}, {"name": "functional_1/res_block_0_cnn_2_batchnorm/Shape", "op": "Shape", "input": ["functional_1/res_block_0_cnn_2/Conv2D"], "attr": {"T": {"type": "DT_FLOAT"}, "out_type": {"type": "DT_INT32"}}}, {"name": "functional_1/res_block_0_cnn_2_batchnorm/strided_slice", "op": "StridedSlice", "input": ["functional_1/res_block_0_cnn_2_batchnorm/Shape", "functional_1/res_block_0_cnn_2_batchnorm/strided_slice/stack", "functional_1/res_block_0_cnn_2_batchnorm/strided_slice/stack_1", "functional_1/res_block_0_cnn_2_batchnorm/strided_slice/stack_2"], "attr": {"T": {"type": "DT_INT32"}, "Index": {"type": "DT_INT32"}, "shrink_axis_mask": {"i": "0"}, "begin_mask": {"i": "0"}, "ellipsis_mask": {"i": "0"}, "new_axis_mask": {"i": "0"}, "end_mask": {"i": "1"}}}, {"name": "functional_1/res_block_0_cnn_2_batchnorm/concat", "op": "ConcatV2", "input": ["functional_1/res_block_0_cnn_2_batchnorm/Const", "functional_1/res_block_0_cnn_2_batchnorm/strided_slice", "functional_1/res_block_0_cnn_2_batchnorm/concat/axis"], "attr": {"Tidx": {"type": "DT_INT32"}, "T": {"type": "DT_INT32"}, "N": {"i": "2"}}}, {"name": "functional_1/res_block_0_cnn_2_batchnorm/strided_slice_1", "op": "StridedSlice", "input": ["functional_1/res_block_0_cnn_2_batchnorm/concat", "functional_1/res_block_0_cnn_2_batchnorm/strided_slice_1/stack", "functional_1/res_block_0_cnn_2_batchnorm/strided_slice_1/stack_1", "functional_1/res_block_0_cnn_2_batchnorm/strided_slice_1/stack_2"], "attr": {"T": {"type": "DT_INT32"}, "Index": {"type": "DT_INT32"}, "shrink_axis_mask": {"i": "0"}, "begin_mask": {"i": "0"}, "ellipsis_mask": {"i": "0"}, "new_axis_mask": {"i": "0"}, "end_mask": {"i": "1"}}}, {"name": "functional_1/res_block_0_cnn_2_batchnorm/concat_1", "op": "ConcatV2", "input": ["functional_1/res_block_0_cnn_2_batchnorm/Const_1", "functional_1/res_block_0_cnn_2_batchnorm/strided_slice_1", "functional_1/res_block_0_cnn_2_batchnorm/concat_1/axis"], "attr": {"N": {"i": "2"}, "Tidx": {"type": "DT_INT32"}, "T": {"type": "DT_INT32"}}}, {"name": "functional_1/res_block_0_cnn_2_batchnorm/Reshape", "op": "Reshape", "input": ["functional_1/res_block_0_cnn_2/Conv2D", "functional_1/res_block_0_cnn_2_batchnorm/concat_1"], "attr": {"T": {"type": "DT_FLOAT"}, "Tshape": {"type": "DT_INT32"}}}, {"name": "functional_1/res_block_0_cnn_2_batchnorm/batchnorm/mul_1", "op": "Mul", "input": ["functional_1/res_block_0_cnn_2_batchnorm/Reshape", "functional_1/res_block_0_cnn_2_batchnorm/batchnorm/mul"], "attr": {"T": {"type": "DT_FLOAT"}}}, {"name": "functional_1/res_block_0_cnn_2_batchnorm/batchnorm/add_1", "op": "AddV2", "input": ["functional_1/res_block_0_cnn_2_batchnorm/batchnorm/mul_1", "functional_1/res_block_0_cnn_2_batchnorm/batchnorm/sub"], "attr": {"T": {"type": "DT_FLOAT"}}}, {"name": "functional_1/res_block_0_cnn_2_batchnorm/Reshape_1", "op": "Reshape", "input": ["functional_1/res_block_0_cnn_2_batchnorm/batchnorm/add_1", "functional_1/res_block_0_cnn_2_batchnorm/concat"], "attr": {"T": {"type": "DT_FLOAT"}, "Tshape": {"type": "DT_INT32"}}}, {"name": "functional_1/global_average_pooling2d/Mean", "op": "Mean", "input": ["functional_1/res_block_0_cnn_2_batchnorm/Reshape_1", "functional_1/global_average_pooling2d/Mean/reduction_indices"], "attr": {"Tidx": {"type": "DT_INT32"}, "keep_dims": {"b": false}, "T": {"type": "DT_FLOAT"}}}, {"name": "functional_1/activation_2/Relu", "op": "_FusedMatMul", "input": ["functional_1/global_average_pooling2d/Mean", "functional_1/res_block_0_squeeze/MatMul/ReadVariableOp/resource", "functional_1/res_block_0_squeeze/BiasAdd/ReadVariableOp/resource"], "device": "/device:CPU:0", "attr": {"epsilon": {"f": 0.0}, "fused_ops": {"list": {"s": ["Qmlhc0FkZA==", "UmVsdQ=="]}}, "transpose_a": {"b": false}, "transpose_b": {"b": false}, "T": {"type": "DT_FLOAT"}, "num_args": {"i": "1"}}}, {"name": "functional_1/res_block_0_excited/BiasAdd", "op": "_FusedMatMul", "input": ["functional_1/activation_2/Relu", "functional_1/res_block_0_excited/MatMul/ReadVariableOp/resource", "functional_1/res_block_0_excited/BiasAdd/ReadVariableOp/resource"], "device": "/device:CPU:0", "attr": {"epsilon": {"f": 0.0}, "fused_ops": {"list": {"s": ["Qmlhc0FkZA=="]}}, "transpose_a": {"b": false}, "transpose_b": {"b": false}, "T": {"type": "DT_FLOAT"}, "num_args": {"i": "1"}}}, {"name": "functional_1/apply_squeeze_excitation/Reshape", "op": "Reshape", "input": ["functional_1/res_block_0_excited/BiasAdd", "functional_1/apply_squeeze_excitation/Reshape/shape"], "attr": {"T": {"type": "DT_FLOAT"}, "Tshape": {"type": "DT_INT32"}}}, {"name": "functional_1/apply_squeeze_excitation/split", "op": "Split", "input": ["functional_1/apply_squeeze_excitation/split/split_dim", "functional_1/apply_squeeze_excitation/Reshape"], "attr": {"T": {"type": "DT_FLOAT"}, "num_split": {"i": "2"}}}, {"name": "functional_1/apply_squeeze_excitation/Sigmoid", "op": "Sigmoid", "input": ["functional_1/apply_squeeze_excitation/split"], "attr": {"T": {"type": "DT_FLOAT"}}}, {"name": "functional_1/apply_squeeze_excitation/mul", "op": "Mul", "input": ["functional_1/apply_squeeze_excitation/Sigmoid", "functional_1/res_block_0_cnn_2_batchnorm/Reshape_1"], "attr": {"T": {"type": "DT_FLOAT"}}}, {"name": "functional_1/add/ArithmeticOptimizer/AddOpsRewrite_Leaf_1_add", "op": "AddN", "input": ["functional_1/activation/Relu", "functional_1/apply_squeeze_excitation/mul"], "attr": {"_grappler_ArithmeticOptimizer_AddOpsRewriteStage": {"b": true}, "T": {"type": "DT_FLOAT"}, "N": {"i": "2"}}}, {"name": "functional_1/add/ArithmeticOptimizer/AddOpsRewrite_add", "op": "Add", "input": ["functional_1/apply_squeeze_excitation/split:1", "functional_1/add/ArithmeticOptimizer/AddOpsRewrite_Leaf_1_add"], "attr": {"_grappler_ArithmeticOptimizer_AddOpsRewriteStage": {"b": true}, "T": {"type": "DT_FLOAT"}}}, {"name": "functional_1/activation_3/Relu", "op": "Relu", "input": ["functional_1/add/ArithmeticOptimizer/AddOpsRewrite_add"], "attr": {"T": {"type": "DT_FLOAT"}}}, {"name": "functional_1/res_block_1_cnn_1/Conv2D", "op": "Conv2D", "input": ["functional_1/activation_3/Relu", "functional_1/res_block_1_cnn_1/Conv2D/ReadVariableOp/resource"], "device": "/device:CPU:0", "attr": {"dilations": {"list": {"i": ["1", "1", "1", "1"]}}, "T": {"type": "DT_FLOAT"}, "data_format": {"s": "TkNIVw=="}, "strides": {"list": {"i": ["1", "1", "1", "1"]}}, "explicit_paddings": {"list": {}}, "use_cudnn_on_gpu": {"b": true}, "padding": {"s": "U0FNRQ=="}}}, {"name": "functional_1/res_block_1_cnn_1_batchnorm/Shape", "op": "Shape", "input": ["functional_1/res_block_1_cnn_1/Conv2D"], "attr": {"T": {"type": "DT_FLOAT"}, "out_type": {"type": "DT_INT32"}}}, {"name": "functional_1/res_block_1_cnn_1_batchnorm/strided_slice", "op": "StridedSlice", "input": ["functional_1/res_block_1_cnn_1_batchnorm/Shape", "functional_1/res_block_1_cnn_1_batchnorm/strided_slice/stack", "functional_1/res_block_1_cnn_1_batchnorm/strided_slice/stack_1", "functional_1/res_block_1_cnn_1_batchnorm/strided_slice/stack_2"], "attr": {"T": {"type": "DT_INT32"}, "Index": {"type": "DT_INT32"}, "shrink_axis_mask": {"i": "0"}, "ellipsis_mask": {"i": "0"}, "begin_mask": {"i": "0"}, "new_axis_mask": {"i": "0"}, "end_mask": {"i": "1"}}}, {"name": "functional_1/res_block_1_cnn_1_batchnorm/concat", "op": "ConcatV2", "input": ["functional_1/res_block_1_cnn_1_batchnorm/Const", "functional_1/res_block_1_cnn_1_batchnorm/strided_slice", "functional_1/res_block_1_cnn_1_batchnorm/concat/axis"], "attr": {"N": {"i": "2"}, "Tidx": {"type": "DT_INT32"}, "T": {"type": "DT_INT32"}}}, {"name": "functional_1/res_block_1_cnn_1_batchnorm/strided_slice_1", "op": "StridedSlice", "input": ["functional_1/res_block_1_cnn_1_batchnorm/concat", "functional_1/res_block_1_cnn_1_batchnorm/strided_slice_1/stack", "functional_1/res_block_1_cnn_1_batchnorm/strided_slice_1/stack_1", "functional_1/res_block_1_cnn_1_batchnorm/strided_slice_1/stack_2"], "attr": {"Index": {"type": "DT_INT32"}, "T": {"type": "DT_INT32"}, "shrink_axis_mask": {"i": "0"}, "begin_mask": {"i": "0"}, "ellipsis_mask": {"i": "0"}, "new_axis_mask": {"i": "0"}, "end_mask": {"i": "1"}}}, {"name": "functional_1/res_block_1_cnn_1_batchnorm/concat_1", "op": "ConcatV2", "input": ["functional_1/res_block_1_cnn_1_batchnorm/Const_1", "functional_1/res_block_1_cnn_1_batchnorm/strided_slice_1", "functional_1/res_block_1_cnn_1_batchnorm/concat_1/axis"], "attr": {"Tidx": {"type": "DT_INT32"}, "T": {"type": "DT_INT32"}, "N": {"i": "2"}}}, {"name": "functional_1/res_block_1_cnn_1_batchnorm/Reshape", "op": "Reshape", "input": ["functional_1/res_block_1_cnn_1/Conv2D", "functional_1/res_block_1_cnn_1_batchnorm/concat_1"], "attr": {"T": {"type": "DT_FLOAT"}, "Tshape": {"type": "DT_INT32"}}}, {"name": "functional_1/res_block_1_cnn_1_batchnorm/batchnorm/mul", "op": "Mul", "input": ["functional_1/res_block_1_cnn_1_batchnorm/Reshape", "functional_1/res_block_1_cnn_1_batchnorm/batchnorm/Rsqrt"], "attr": {"T": {"type": "DT_FLOAT"}}}, {"name": "functional_1/res_block_1_cnn_1_batchnorm/batchnorm/add_1", "op": "AddV2", "input": ["functional_1/res_block_1_cnn_1_batchnorm/batchnorm/mul", "functional_1/res_block_1_cnn_1_batchnorm/batchnorm/sub"], "attr": {"T": {"type": "DT_FLOAT"}}}, {"name": "functional_1/res_block_1_cnn_1_batchnorm/Reshape_1", "op": "Reshape", "input": ["functional_1/res_block_1_cnn_1_batchnorm/batchnorm/add_1", "functional_1/res_block_1_cnn_1_batchnorm/concat"], "attr": {"Tshape": {"type": "DT_INT32"}, "T": {"type": "DT_FLOAT"}}}, {"name": "functional_1/activation_4/Relu", "op": "Relu", "input": ["functional_1/res_block_1_cnn_1_batchnorm/Reshape_1"], "attr": {"T": {"type": "DT_FLOAT"}}}, {"name": "functional_1/res_block_1_cnn_2/Conv2D", "op": "Conv2D", "input": ["functional_1/activation_4/Relu", "functional_1/res_block_1_cnn_2/Conv2D/ReadVariableOp/resource"], "device": "/device:CPU:0", "attr": {"dilations": {"list": {"i": ["1", "1", "1", "1"]}}, "T": {"type": "DT_FLOAT"}, "data_format": {"s": "TkNIVw=="}, "strides": {"list": {"i": ["1", "1", "1", "1"]}}, "explicit_paddings": {"list": {}}, "use_cudnn_on_gpu": {"b": true}, "padding": {"s": "U0FNRQ=="}}}, {"name": "functional_1/res_block_1_cnn_2_batchnorm/Shape", "op": "Shape", "input": ["functional_1/res_block_1_cnn_2/Conv2D"], "attr": {"T": {"type": "DT_FLOAT"}, "out_type": {"type": "DT_INT32"}}}, {"name": "functional_1/res_block_1_cnn_2_batchnorm/strided_slice", "op": "StridedSlice", "input": ["functional_1/res_block_1_cnn_2_batchnorm/Shape", "functional_1/res_block_1_cnn_2_batchnorm/strided_slice/stack", "functional_1/res_block_1_cnn_2_batchnorm/strided_slice/stack_1", "functional_1/res_block_1_cnn_2_batchnorm/strided_slice/stack_2"], "attr": {"begin_mask": {"i": "0"}, "ellipsis_mask": {"i": "0"}, "new_axis_mask": {"i": "0"}, "end_mask": {"i": "1"}, "Index": {"type": "DT_INT32"}, "T": {"type": "DT_INT32"}, "shrink_axis_mask": {"i": "0"}}}, {"name": "functional_1/res_block_1_cnn_2_batchnorm/concat", "op": "ConcatV2", "input": ["functional_1/res_block_1_cnn_2_batchnorm/Const", "functional_1/res_block_1_cnn_2_batchnorm/strided_slice", "functional_1/res_block_1_cnn_2_batchnorm/concat/axis"], "attr": {"N": {"i": "2"}, "Tidx": {"type": "DT_INT32"}, "T": {"type": "DT_INT32"}}}, {"name": "functional_1/res_block_1_cnn_2_batchnorm/strided_slice_1", "op": "StridedSlice", "input": ["functional_1/res_block_1_cnn_2_batchnorm/concat", "functional_1/res_block_1_cnn_2_batchnorm/strided_slice_1/stack", "functional_1/res_block_1_cnn_2_batchnorm/strided_slice_1/stack_1", "functional_1/res_block_1_cnn_2_batchnorm/strided_slice_1/stack_2"], "attr": {"begin_mask": {"i": "0"}, "ellipsis_mask": {"i": "0"}, "new_axis_mask": {"i": "0"}, "end_mask": {"i": "1"}, "T": {"type": "DT_INT32"}, "Index": {"type": "DT_INT32"}, "shrink_axis_mask": {"i": "0"}}}, {"name": "functional_1/res_block_1_cnn_2_batchnorm/concat_1", "op": "ConcatV2", "input": ["functional_1/res_block_1_cnn_2_batchnorm/Const_1", "functional_1/res_block_1_cnn_2_batchnorm/strided_slice_1", "functional_1/res_block_1_cnn_2_batchnorm/concat_1/axis"], "attr": {"Tidx": {"type": "DT_INT32"}, "T": {"type": "DT_INT32"}, "N": {"i": "2"}}}, {"name": "functional_1/res_block_1_cnn_2_batchnorm/Reshape", "op": "Reshape", "input": ["functional_1/res_block_1_cnn_2/Conv2D", "functional_1/res_block_1_cnn_2_batchnorm/concat_1"], "attr": {"T": {"type": "DT_FLOAT"}, "Tshape": {"type": "DT_INT32"}}}, {"name": "functional_1/res_block_1_cnn_2_batchnorm/batchnorm/mul_1", "op": "Mul", "input": ["functional_1/res_block_1_cnn_2_batchnorm/Reshape", "functional_1/res_block_1_cnn_2_batchnorm/batchnorm/mul"], "attr": {"T": {"type": "DT_FLOAT"}}}, {"name": "functional_1/res_block_1_cnn_2_batchnorm/batchnorm/add_1", "op": "AddV2", "input": ["functional_1/res_block_1_cnn_2_batchnorm/batchnorm/mul_1", "functional_1/res_block_1_cnn_2_batchnorm/batchnorm/sub"], "attr": {"T": {"type": "DT_FLOAT"}}}, {"name": "functional_1/res_block_1_cnn_2_batchnorm/Reshape_1", "op": "Reshape", "input": ["functional_1/res_block_1_cnn_2_batchnorm/batchnorm/add_1", "functional_1/res_block_1_cnn_2_batchnorm/concat"], "attr": {"T": {"type": "DT_FLOAT"}, "Tshape": {"type": "DT_INT32"}}}, {"name": "functional_1/global_average_pooling2d_1/Mean", "op": "Mean", "input": ["functional_1/res_block_1_cnn_2_batchnorm/Reshape_1", "functional_1/global_average_pooling2d_1/Mean/reduction_indices"], "attr": {"Tidx": {"type": "DT_INT32"}, "keep_dims": {"b": false}, "T": {"type": "DT_FLOAT"}}}, {"name": "functional_1/activation_5/Relu", "op": "_FusedMatMul", "input": ["functional_1/global_average_pooling2d_1/Mean", "functional_1/res_block_1_squeeze/MatMul/ReadVariableOp/resource", "functional_1/res_block_1_squeeze/BiasAdd/ReadVariableOp/resource"], "device": "/device:CPU:0", "attr": {"fused_ops": {"list": {"s": ["Qmlhc0FkZA==", "UmVsdQ=="]}}, "transpose_a": {"b": false}, "transpose_b": {"b": false}, "T": {"type": "DT_FLOAT"}, "num_args": {"i": "1"}, "epsilon": {"f": 0.0}}}, {"name": "functional_1/res_block_1_excited/BiasAdd", "op": "_FusedMatMul", "input": ["functional_1/activation_5/Relu", "functional_1/res_block_1_excited/MatMul/ReadVariableOp/resource", "functional_1/res_block_1_excited/BiasAdd/ReadVariableOp/resource"], "device": "/device:CPU:0", "attr": {"transpose_b": {"b": false}, "T": {"type": "DT_FLOAT"}, "num_args": {"i": "1"}, "epsilon": {"f": 0.0}, "fused_ops": {"list": {"s": ["Qmlhc0FkZA=="]}}, "transpose_a": {"b": false}}}, {"name": "functional_1/apply_squeeze_excitation_1/Reshape", "op": "Reshape", "input": ["functional_1/res_block_1_excited/BiasAdd", "functional_1/apply_squeeze_excitation_1/Reshape/shape"], "attr": {"T": {"type": "DT_FLOAT"}, "Tshape": {"type": "DT_INT32"}}}, {"name": "functional_1/apply_squeeze_excitation_1/split", "op": "Split", "input": ["functional_1/apply_squeeze_excitation_1/split/split_dim", "functional_1/apply_squeeze_excitation_1/Reshape"], "attr": {"num_split": {"i": "2"}, "T": {"type": "DT_FLOAT"}}}, {"name": "functional_1/apply_squeeze_excitation_1/Sigmoid", "op": "Sigmoid", "input": ["functional_1/apply_squeeze_excitation_1/split"], "attr": {"T": {"type": "DT_FLOAT"}}}, {"name": "functional_1/apply_squeeze_excitation_1/mul", "op": "Mul", "input": ["functional_1/apply_squeeze_excitation_1/Sigmoid", "functional_1/res_block_1_cnn_2_batchnorm/Reshape_1"], "attr": {"T": {"type": "DT_FLOAT"}}}, {"name": "functional_1/add_1/ArithmeticOptimizer/AddOpsRewrite_Leaf_1_add", "op": "AddN", "input": ["functional_1/activation_3/Relu", "functional_1/apply_squeeze_excitation_1/mul"], "attr": {"T": {"type": "DT_FLOAT"}, "N": {"i": "2"}, "_grappler_ArithmeticOptimizer_AddOpsRewriteStage": {"b": true}}}, {"name": "functional_1/add_1/ArithmeticOptimizer/AddOpsRewrite_add", "op": "Add", "input": ["functional_1/apply_squeeze_excitation_1/split:1", "functional_1/add_1/ArithmeticOptimizer/AddOpsRewrite_Leaf_1_add"], "attr": {"T": {"type": "DT_FLOAT"}, "_grappler_ArithmeticOptimizer_AddOpsRewriteStage": {"b": true}}}, {"name": "functional_1/activation_6/Relu", "op": "Relu", "input": ["functional_1/add_1/ArithmeticOptimizer/AddOpsRewrite_add"], "attr": {"T": {"type": "DT_FLOAT"}}}, {"name": "functional_1/res_block_2_cnn_1/Conv2D", "op": "Conv2D", "input": ["functional_1/activation_6/Relu", "functional_1/res_block_2_cnn_1/Conv2D/ReadVariableOp/resource"], "device": "/device:CPU:0", "attr": {"dilations": {"list": {"i": ["1", "1", "1", "1"]}}, "T": {"type": "DT_FLOAT"}, "data_format": {"s": "TkNIVw=="}, "strides": {"list": {"i": ["1", "1", "1", "1"]}}, "explicit_paddings": {"list": {}}, "use_cudnn_on_gpu": {"b": true}, "padding": {"s": "U0FNRQ=="}}}, {"name": "functional_1/res_block_2_cnn_1_batchnorm/Shape", "op": "Shape", "input": ["functional_1/res_block_2_cnn_1/Conv2D"], "attr": {"T": {"type": "DT_FLOAT"}, "out_type": {"type": "DT_INT32"}}}, {"name": "functional_1/res_block_2_cnn_1_batchnorm/strided_slice", "op": "StridedSlice", "input": ["functional_1/res_block_2_cnn_1_batchnorm/Shape", "functional_1/res_block_2_cnn_1_batchnorm/strided_slice/stack", "functional_1/res_block_2_cnn_1_batchnorm/strided_slice/stack_1", "functional_1/res_block_2_cnn_1_batchnorm/strided_slice/stack_2"], "attr": {"shrink_axis_mask": {"i": "0"}, "ellipsis_mask": {"i": "0"}, "begin_mask": {"i": "0"}, "new_axis_mask": {"i": "0"}, "end_mask": {"i": "1"}, "T": {"type": "DT_INT32"}, "Index": {"type": "DT_INT32"}}}, {"name": "functional_1/res_block_2_cnn_1_batchnorm/concat", "op": "ConcatV2", "input": ["functional_1/res_block_2_cnn_1_batchnorm/Const", "functional_1/res_block_2_cnn_1_batchnorm/strided_slice", "functional_1/res_block_2_cnn_1_batchnorm/concat/axis"], "attr": {"T": {"type": "DT_INT32"}, "N": {"i": "2"}, "Tidx": {"type": "DT_INT32"}}}, {"name": "functional_1/res_block_2_cnn_1_batchnorm/strided_slice_1", "op": "StridedSlice", "input": ["functional_1/res_block_2_cnn_1_batchnorm/concat", "functional_1/res_block_2_cnn_1_batchnorm/strided_slice_1/stack", "functional_1/res_block_2_cnn_1_batchnorm/strided_slice_1/stack_1", "functional_1/res_block_2_cnn_1_batchnorm/strided_slice_1/stack_2"], "attr": {"T": {"type": "DT_INT32"}, "Index": {"type": "DT_INT32"}, "shrink_axis_mask": {"i": "0"}, "begin_mask": {"i": "0"}, "ellipsis_mask": {"i": "0"}, "new_axis_mask": {"i": "0"}, "end_mask": {"i": "1"}}}, {"name": "functional_1/res_block_2_cnn_1_batchnorm/concat_1", "op": "ConcatV2", "input": ["functional_1/res_block_2_cnn_1_batchnorm/Const_1", "functional_1/res_block_2_cnn_1_batchnorm/strided_slice_1", "functional_1/res_block_2_cnn_1_batchnorm/concat_1/axis"], "attr": {"T": {"type": "DT_INT32"}, "N": {"i": "2"}, "Tidx": {"type": "DT_INT32"}}}, {"name": "functional_1/res_block_2_cnn_1_batchnorm/Reshape", "op": "Reshape", "input": ["functional_1/res_block_2_cnn_1/Conv2D", "functional_1/res_block_2_cnn_1_batchnorm/concat_1"], "attr": {"T": {"type": "DT_FLOAT"}, "Tshape": {"type": "DT_INT32"}}}, {"name": "functional_1/res_block_2_cnn_1_batchnorm/batchnorm/mul", "op": "Mul", "input": ["functional_1/res_block_2_cnn_1_batchnorm/Reshape", "functional_1/res_block_2_cnn_1_batchnorm/batchnorm/Rsqrt"], "attr": {"T": {"type": "DT_FLOAT"}}}, {"name": "functional_1/res_block_2_cnn_1_batchnorm/batchnorm/add_1", "op": "AddV2", "input": ["functional_1/res_block_2_cnn_1_batchnorm/batchnorm/mul", "functional_1/res_block_2_cnn_1_batchnorm/batchnorm/sub"], "attr": {"T": {"type": "DT_FLOAT"}}}, {"name": "functional_1/res_block_2_cnn_1_batchnorm/Reshape_1", "op": "Reshape", "input": ["functional_1/res_block_2_cnn_1_batchnorm/batchnorm/add_1", "functional_1/res_block_2_cnn_1_batchnorm/concat"], "attr": {"T": {"type": "DT_FLOAT"}, "Tshape": {"type": "DT_INT32"}}}, {"name": "functional_1/activation_7/Relu", "op": "Relu", "input": ["functional_1/res_block_2_cnn_1_batchnorm/Reshape_1"], "attr": {"T": {"type": "DT_FLOAT"}}}, {"name": "functional_1/res_block_2_cnn_2/Conv2D", "op": "Conv2D", "input": ["functional_1/activation_7/Relu", "functional_1/res_block_2_cnn_2/Conv2D/ReadVariableOp/resource"], "device": "/device:CPU:0", "attr": {"T": {"type": "DT_FLOAT"}, "data_format": {"s": "TkNIVw=="}, "strides": {"list": {"i": ["1", "1", "1", "1"]}}, "use_cudnn_on_gpu": {"b": true}, "explicit_paddings": {"list": {}}, "padding": {"s": "U0FNRQ=="}, "dilations": {"list": {"i": ["1", "1", "1", "1"]}}}}, {"name": "functional_1/res_block_2_cnn_2_batchnorm/Shape", "op": "Shape", "input": ["functional_1/res_block_2_cnn_2/Conv2D"], "attr": {"out_type": {"type": "DT_INT32"}, "T": {"type": "DT_FLOAT"}}}, {"name": "functional_1/res_block_2_cnn_2_batchnorm/strided_slice", "op": "StridedSlice", "input": ["functional_1/res_block_2_cnn_2_batchnorm/Shape", "functional_1/res_block_2_cnn_2_batchnorm/strided_slice/stack", "functional_1/res_block_2_cnn_2_batchnorm/strided_slice/stack_1", "functional_1/res_block_2_cnn_2_batchnorm/strided_slice/stack_2"], "attr": {"begin_mask": {"i": "0"}, "ellipsis_mask": {"i": "0"}, "new_axis_mask": {"i": "0"}, "end_mask": {"i": "1"}, "Index": {"type": "DT_INT32"}, "T": {"type": "DT_INT32"}, "shrink_axis_mask": {"i": "0"}}}, {"name": "functional_1/res_block_2_cnn_2_batchnorm/concat", "op": "ConcatV2", "input": ["functional_1/res_block_2_cnn_2_batchnorm/Const", "functional_1/res_block_2_cnn_2_batchnorm/strided_slice", "functional_1/res_block_2_cnn_2_batchnorm/concat/axis"], "attr": {"Tidx": {"type": "DT_INT32"}, "T": {"type": "DT_INT32"}, "N": {"i": "2"}}}, {"name": "functional_1/res_block_2_cnn_2_batchnorm/strided_slice_1", "op": "StridedSlice", "input": ["functional_1/res_block_2_cnn_2_batchnorm/concat", "functional_1/res_block_2_cnn_2_batchnorm/strided_slice_1/stack", "functional_1/res_block_2_cnn_2_batchnorm/strided_slice_1/stack_1", "functional_1/res_block_2_cnn_2_batchnorm/strided_slice_1/stack_2"], "attr": {"shrink_axis_mask": {"i": "0"}, "begin_mask": {"i": "0"}, "ellipsis_mask": {"i": "0"}, "new_axis_mask": {"i": "0"}, "end_mask": {"i": "1"}, "T": {"type": "DT_INT32"}, "Index": {"type": "DT_INT32"}}}, {"name": "functional_1/res_block_2_cnn_2_batchnorm/concat_1", "op": "ConcatV2", "input": ["functional_1/res_block_2_cnn_2_batchnorm/Const_1", "functional_1/res_block_2_cnn_2_batchnorm/strided_slice_1", "functional_1/res_block_2_cnn_2_batchnorm/concat_1/axis"], "attr": {"Tidx": {"type": "DT_INT32"}, "T": {"type": "DT_INT32"}, "N": {"i": "2"}}}, {"name": "functional_1/res_block_2_cnn_2_batchnorm/Reshape", "op": "Reshape", "input": ["functional_1/res_block_2_cnn_2/Conv2D", "functional_1/res_block_2_cnn_2_batchnorm/concat_1"], "attr": {"T": {"type": "DT_FLOAT"}, "Tshape": {"type": "DT_INT32"}}}, {"name": "functional_1/res_block_2_cnn_2_batchnorm/batchnorm/mul_1", "op": "Mul", "input": ["functional_1/res_block_2_cnn_2_batchnorm/Reshape", "functional_1/res_block_2_cnn_2_batchnorm/batchnorm/mul"], "attr": {"T": {"type": "DT_FLOAT"}}}, {"name": "functional_1/res_block_2_cnn_2_batchnorm/batchnorm/add_1", "op": "AddV2", "input": ["functional_1/res_block_2_cnn_2_batchnorm/batchnorm/mul_1", "functional_1/res_block_2_cnn_2_batchnorm/batchnorm/sub"], "attr": {"T": {"type": "DT_FLOAT"}}}, {"name": "functional_1/res_block_2_cnn_2_batchnorm/Reshape_1", "op": "Reshape", "input": ["functional_1/res_block_2_cnn_2_batchnorm/batchnorm/add_1", "functional_1/res_block_2_cnn_2_batchnorm/concat"], "attr": {"Tshape": {"type": "DT_INT32"}, "T": {"type": "DT_FLOAT"}}}, {"name": "functional_1/global_average_pooling2d_2/Mean", "op": "Mean", "input": ["functional_1/res_block_2_cnn_2_batchnorm/Reshape_1", "functional_1/global_average_pooling2d_2/Mean/reduction_indices"], "attr": {"Tidx": {"type": "DT_INT32"}, "keep_dims": {"b": false}, "T": {"type": "DT_FLOAT"}}}, {"name": "functional_1/activation_8/Relu", "op": "_FusedMatMul", "input": ["functional_1/global_average_pooling2d_2/Mean", "functional_1/res_block_2_squeeze/MatMul/ReadVariableOp/resource", "functional_1/res_block_2_squeeze/BiasAdd/ReadVariableOp/resource"], "device": "/device:CPU:0", "attr": {"num_args": {"i": "1"}, "epsilon": {"f": 0.0}, "fused_ops": {"list": {"s": ["Qmlhc0FkZA==", "UmVsdQ=="]}}, "transpose_a": {"b": false}, "transpose_b": {"b": false}, "T": {"type": "DT_FLOAT"}}}, {"name": "functional_1/res_block_2_excited/BiasAdd", "op": "_FusedMatMul", "input": ["functional_1/activation_8/Relu", "functional_1/res_block_2_excited/MatMul/ReadVariableOp/resource", "functional_1/res_block_2_excited/BiasAdd/ReadVariableOp/resource"], "device": "/device:CPU:0", "attr": {"num_args": {"i": "1"}, "epsilon": {"f": 0.0}, "fused_ops": {"list": {"s": ["Qmlhc0FkZA=="]}}, "transpose_a": {"b": false}, "transpose_b": {"b": false}, "T": {"type": "DT_FLOAT"}}}, {"name": "functional_1/apply_squeeze_excitation_2/Reshape", "op": "Reshape", "input": ["functional_1/res_block_2_excited/BiasAdd", "functional_1/apply_squeeze_excitation_2/Reshape/shape"], "attr": {"Tshape": {"type": "DT_INT32"}, "T": {"type": "DT_FLOAT"}}}, {"name": "functional_1/apply_squeeze_excitation_2/split", "op": "Split", "input": ["functional_1/apply_squeeze_excitation_2/split/split_dim", "functional_1/apply_squeeze_excitation_2/Reshape"], "attr": {"num_split": {"i": "2"}, "T": {"type": "DT_FLOAT"}}}, {"name": "functional_1/apply_squeeze_excitation_2/Sigmoid", "op": "Sigmoid", "input": ["functional_1/apply_squeeze_excitation_2/split"], "attr": {"T": {"type": "DT_FLOAT"}}}, {"name": "functional_1/apply_squeeze_excitation_2/mul", "op": "Mul", "input": ["functional_1/apply_squeeze_excitation_2/Sigmoid", "functional_1/res_block_2_cnn_2_batchnorm/Reshape_1"], "attr": {"T": {"type": "DT_FLOAT"}}}, {"name": "functional_1/add_2/ArithmeticOptimizer/AddOpsRewrite_Leaf_1_add", "op": "AddN", "input": ["functional_1/activation_6/Relu", "functional_1/apply_squeeze_excitation_2/mul"], "attr": {"N": {"i": "2"}, "_grappler_ArithmeticOptimizer_AddOpsRewriteStage": {"b": true}, "T": {"type": "DT_FLOAT"}}}, {"name": "functional_1/add_2/ArithmeticOptimizer/AddOpsRewrite_add", "op": "Add", "input": ["functional_1/apply_squeeze_excitation_2/split:1", "functional_1/add_2/ArithmeticOptimizer/AddOpsRewrite_Leaf_1_add"], "attr": {"T": {"type": "DT_FLOAT"}, "_grappler_ArithmeticOptimizer_AddOpsRewriteStage": {"b": true}}}, {"name": "functional_1/activation_9/Relu", "op": "Relu", "input": ["functional_1/add_2/ArithmeticOptimizer/AddOpsRewrite_add"], "attr": {"T": {"type": "DT_FLOAT"}}}, {"name": "functional_1/res_block_3_cnn_1/Conv2D", "op": "Conv2D", "input": ["functional_1/activation_9/Relu", "functional_1/res_block_3_cnn_1/Conv2D/ReadVariableOp/resource"], "device": "/device:CPU:0", "attr": {"dilations": {"list": {"i": ["1", "1", "1", "1"]}}, "T": {"type": "DT_FLOAT"}, "data_format": {"s": "TkNIVw=="}, "strides": {"list": {"i": ["1", "1", "1", "1"]}}, "use_cudnn_on_gpu": {"b": true}, "explicit_paddings": {"list": {}}, "padding": {"s": "U0FNRQ=="}}}, {"name": "functional_1/res_block_3_cnn_1_batchnorm/Shape", "op": "Shape", "input": ["functional_1/res_block_3_cnn_1/Conv2D"], "attr": {"T": {"type": "DT_FLOAT"}, "out_type": {"type": "DT_INT32"}}}, {"name": "functional_1/res_block_3_cnn_1_batchnorm/strided_slice", "op": "StridedSlice", "input": ["functional_1/res_block_3_cnn_1_batchnorm/Shape", "functional_1/res_block_3_cnn_1_batchnorm/strided_slice/stack", "functional_1/res_block_3_cnn_1_batchnorm/strided_slice/stack_1", "functional_1/res_block_3_cnn_1_batchnorm/strided_slice/stack_2"], "attr": {"begin_mask": {"i": "0"}, "ellipsis_mask": {"i": "0"}, "new_axis_mask": {"i": "0"}, "end_mask": {"i": "1"}, "T": {"type": "DT_INT32"}, "Index": {"type": "DT_INT32"}, "shrink_axis_mask": {"i": "0"}}}, {"name": "functional_1/res_block_3_cnn_1_batchnorm/concat", "op": "ConcatV2", "input": ["functional_1/res_block_3_cnn_1_batchnorm/Const", "functional_1/res_block_3_cnn_1_batchnorm/strided_slice", "functional_1/res_block_3_cnn_1_batchnorm/concat/axis"], "attr": {"Tidx": {"type": "DT_INT32"}, "T": {"type": "DT_INT32"}, "N": {"i": "2"}}}, {"name": "functional_1/res_block_3_cnn_1_batchnorm/strided_slice_1", "op": "StridedSlice", "input": ["functional_1/res_block_3_cnn_1_batchnorm/concat", "functional_1/res_block_3_cnn_1_batchnorm/strided_slice_1/stack", "functional_1/res_block_3_cnn_1_batchnorm/strided_slice_1/stack_1", "functional_1/res_block_3_cnn_1_batchnorm/strided_slice_1/stack_2"], "attr": {"shrink_axis_mask": {"i": "0"}, "ellipsis_mask": {"i": "0"}, "begin_mask": {"i": "0"}, "new_axis_mask": {"i": "0"}, "end_mask": {"i": "1"}, "T": {"type": "DT_INT32"}, "Index": {"type": "DT_INT32"}}}, {"name": "functional_1/res_block_3_cnn_1_batchnorm/concat_1", "op": "ConcatV2", "input": ["functional_1/res_block_3_cnn_1_batchnorm/Const_1", "functional_1/res_block_3_cnn_1_batchnorm/strided_slice_1", "functional_1/res_block_3_cnn_1_batchnorm/concat_1/axis"], "attr": {"Tidx": {"type": "DT_INT32"}, "T": {"type": "DT_INT32"}, "N": {"i": "2"}}}, {"name": "functional_1/res_block_3_cnn_1_batchnorm/Reshape", "op": "Reshape", "input": ["functional_1/res_block_3_cnn_1/Conv2D", "functional_1/res_block_3_cnn_1_batchnorm/concat_1"], "attr": {"Tshape": {"type": "DT_INT32"}, "T": {"type": "DT_FLOAT"}}}, {"name": "functional_1/res_block_3_cnn_1_batchnorm/batchnorm/mul", "op": "Mul", "input": ["functional_1/res_block_3_cnn_1_batchnorm/Reshape", "functional_1/res_block_3_cnn_1_batchnorm/batchnorm/Rsqrt"], "attr": {"T": {"type": "DT_FLOAT"}}}, {"name": "functional_1/res_block_3_cnn_1_batchnorm/batchnorm/add_1", "op": "AddV2", "input": ["functional_1/res_block_3_cnn_1_batchnorm/batchnorm/mul", "functional_1/res_block_3_cnn_1_batchnorm/batchnorm/sub"], "attr": {"T": {"type": "DT_FLOAT"}}}, {"name": "functional_1/res_block_3_cnn_1_batchnorm/Reshape_1", "op": "Reshape", "input": ["functional_1/res_block_3_cnn_1_batchnorm/batchnorm/add_1", "functional_1/res_block_3_cnn_1_batchnorm/concat"], "attr": {"Tshape": {"type": "DT_INT32"}, "T": {"type": "DT_FLOAT"}}}, {"name": "functional_1/activation_10/Relu", "op": "Relu", "input": ["functional_1/res_block_3_cnn_1_batchnorm/Reshape_1"], "attr": {"T": {"type": "DT_FLOAT"}}}, {"name": "functional_1/res_block_3_cnn_2/Conv2D", "op": "Conv2D", "input": ["functional_1/activation_10/Relu", "functional_1/res_block_3_cnn_2/Conv2D/ReadVariableOp/resource"], "device": "/device:CPU:0", "attr": {"T": {"type": "DT_FLOAT"}, "data_format": {"s": "TkNIVw=="}, "strides": {"list": {"i": ["1", "1", "1", "1"]}}, "explicit_paddings": {"list": {}}, "use_cudnn_on_gpu": {"b": true}, "padding": {"s": "U0FNRQ=="}, "dilations": {"list": {"i": ["1", "1", "1", "1"]}}}}, {"name": "functional_1/res_block_3_cnn_2_batchnorm/Shape", "op": "Shape", "input": ["functional_1/res_block_3_cnn_2/Conv2D"], "attr": {"T": {"type": "DT_FLOAT"}, "out_type": {"type": "DT_INT32"}}}, {"name": "functional_1/res_block_3_cnn_2_batchnorm/strided_slice", "op": "StridedSlice", "input": ["functional_1/res_block_3_cnn_2_batchnorm/Shape", "functional_1/res_block_3_cnn_2_batchnorm/strided_slice/stack", "functional_1/res_block_3_cnn_2_batchnorm/strided_slice/stack_1", "functional_1/res_block_3_cnn_2_batchnorm/strided_slice/stack_2"], "attr": {"T": {"type": "DT_INT32"}, "Index": {"type": "DT_INT32"}, "shrink_axis_mask": {"i": "0"}, "ellipsis_mask": {"i": "0"}, "begin_mask": {"i": "0"}, "new_axis_mask": {"i": "0"}, "end_mask": {"i": "1"}}}, {"name": "functional_1/res_block_3_cnn_2_batchnorm/concat", "op": "ConcatV2", "input": ["functional_1/res_block_3_cnn_2_batchnorm/Const", "functional_1/res_block_3_cnn_2_batchnorm/strided_slice", "functional_1/res_block_3_cnn_2_batchnorm/concat/axis"], "attr": {"T": {"type": "DT_INT32"}, "N": {"i": "2"}, "Tidx": {"type": "DT_INT32"}}}, {"name": "functional_1/res_block_3_cnn_2_batchnorm/strided_slice_1", "op": "StridedSlice", "input": ["functional_1/res_block_3_cnn_2_batchnorm/concat", "functional_1/res_block_3_cnn_2_batchnorm/strided_slice_1/stack", "functional_1/res_block_3_cnn_2_batchnorm/strided_slice_1/stack_1", "functional_1/res_block_3_cnn_2_batchnorm/strided_slice_1/stack_2"], "attr": {"shrink_axis_mask": {"i": "0"}, "ellipsis_mask": {"i": "0"}, "begin_mask": {"i": "0"}, "new_axis_mask": {"i": "0"}, "end_mask": {"i": "1"}, "Index": {"type": "DT_INT32"}, "T": {"type": "DT_INT32"}}}, {"name": "functional_1/res_block_3_cnn_2_batchnorm/concat_1", "op": "ConcatV2", "input": ["functional_1/res_block_3_cnn_2_batchnorm/Const_1", "functional_1/res_block_3_cnn_2_batchnorm/strided_slice_1", "functional_1/res_block_3_cnn_2_batchnorm/concat_1/axis"], "attr": {"T": {"type": "DT_INT32"}, "N": {"i": "2"}, "Tidx": {"type": "DT_INT32"}}}, {"name": "functional_1/res_block_3_cnn_2_batchnorm/Reshape", "op": "Reshape", "input": ["functional_1/res_block_3_cnn_2/Conv2D", "functional_1/res_block_3_cnn_2_batchnorm/concat_1"], "attr": {"Tshape": {"type": "DT_INT32"}, "T": {"type": "DT_FLOAT"}}}, {"name": "functional_1/res_block_3_cnn_2_batchnorm/batchnorm/mul_1", "op": "Mul", "input": ["functional_1/res_block_3_cnn_2_batchnorm/Reshape", "functional_1/res_block_3_cnn_2_batchnorm/batchnorm/mul"], "attr": {"T": {"type": "DT_FLOAT"}}}, {"name": "functional_1/res_block_3_cnn_2_batchnorm/batchnorm/add_1", "op": "AddV2", "input": ["functional_1/res_block_3_cnn_2_batchnorm/batchnorm/mul_1", "functional_1/res_block_3_cnn_2_batchnorm/batchnorm/sub"], "attr": {"T": {"type": "DT_FLOAT"}}}, {"name": "functional_1/res_block_3_cnn_2_batchnorm/Reshape_1", "op": "Reshape", "input": ["functional_1/res_block_3_cnn_2_batchnorm/batchnorm/add_1", "functional_1/res_block_3_cnn_2_batchnorm/concat"], "attr": {"T": {"type": "DT_FLOAT"}, "Tshape": {"type": "DT_INT32"}}}, {"name": "functional_1/global_average_pooling2d_3/Mean", "op": "Mean", "input": ["functional_1/res_block_3_cnn_2_batchnorm/Reshape_1", "functional_1/global_average_pooling2d_3/Mean/reduction_indices"], "attr": {"Tidx": {"type": "DT_INT32"}, "keep_dims": {"b": false}, "T": {"type": "DT_FLOAT"}}}, {"name": "functional_1/activation_11/Relu", "op": "_FusedMatMul", "input": ["functional_1/global_average_pooling2d_3/Mean", "functional_1/res_block_3_squeeze/MatMul/ReadVariableOp/resource", "functional_1/res_block_3_squeeze/BiasAdd/ReadVariableOp/resource"], "device": "/device:CPU:0", "attr": {"epsilon": {"f": 0.0}, "fused_ops": {"list": {"s": ["Qmlhc0FkZA==", "UmVsdQ=="]}}, "transpose_a": {"b": false}, "transpose_b": {"b": false}, "T": {"type": "DT_FLOAT"}, "num_args": {"i": "1"}}}, {"name": "functional_1/res_block_3_excited/BiasAdd", "op": "_FusedMatMul", "input": ["functional_1/activation_11/Relu", "functional_1/res_block_3_excited/MatMul/ReadVariableOp/resource", "functional_1/res_block_3_excited/BiasAdd/ReadVariableOp/resource"], "device": "/device:CPU:0", "attr": {"transpose_a": {"b": false}, "transpose_b": {"b": false}, "T": {"type": "DT_FLOAT"}, "num_args": {"i": "1"}, "epsilon": {"f": 0.0}, "fused_ops": {"list": {"s": ["Qmlhc0FkZA=="]}}}}, {"name": "functional_1/apply_squeeze_excitation_3/Reshape", "op": "Reshape", "input": ["functional_1/res_block_3_excited/BiasAdd", "functional_1/apply_squeeze_excitation_3/Reshape/shape"], "attr": {"T": {"type": "DT_FLOAT"}, "Tshape": {"type": "DT_INT32"}}}, {"name": "functional_1/apply_squeeze_excitation_3/split", "op": "Split", "input": ["functional_1/apply_squeeze_excitation_3/split/split_dim", "functional_1/apply_squeeze_excitation_3/Reshape"], "attr": {"T": {"type": "DT_FLOAT"}, "num_split": {"i": "2"}}}, {"name": "functional_1/apply_squeeze_excitation_3/Sigmoid", "op": "Sigmoid", "input": ["functional_1/apply_squeeze_excitation_3/split"], "attr": {"T": {"type": "DT_FLOAT"}}}, {"name": "functional_1/apply_squeeze_excitation_3/mul", "op": "Mul", "input": ["functional_1/apply_squeeze_excitation_3/Sigmoid", "functional_1/res_block_3_cnn_2_batchnorm/Reshape_1"], "attr": {"T": {"type": "DT_FLOAT"}}}, {"name": "functional_1/add_3/ArithmeticOptimizer/AddOpsRewrite_Leaf_1_add", "op": "AddN", "input": ["functional_1/activation_9/Relu", "functional_1/apply_squeeze_excitation_3/mul"], "attr": {"N": {"i": "2"}, "_grappler_ArithmeticOptimizer_AddOpsRewriteStage": {"b": true}, "T": {"type": "DT_FLOAT"}}}, {"name": "functional_1/add_3/ArithmeticOptimizer/AddOpsRewrite_add", "op": "Add", "input": ["functional_1/apply_squeeze_excitation_3/split:1", "functional_1/add_3/ArithmeticOptimizer/AddOpsRewrite_Leaf_1_add"], "attr": {"_grappler_ArithmeticOptimizer_AddOpsRewriteStage": {"b": true}, "T": {"type": "DT_FLOAT"}}}, {"name": "functional_1/activation_12/Relu", "op": "Relu", "input": ["functional_1/add_3/ArithmeticOptimizer/AddOpsRewrite_add"], "attr": {"T": {"type": "DT_FLOAT"}}}, {"name": "functional_1/res_block_4_cnn_1/Conv2D", "op": "Conv2D", "input": ["functional_1/activation_12/Relu", "functional_1/res_block_4_cnn_1/Conv2D/ReadVariableOp/resource"], "device": "/device:CPU:0", "attr": {"dilations": {"list": {"i": ["1", "1", "1", "1"]}}, "T": {"type": "DT_FLOAT"}, "data_format": {"s": "TkNIVw=="}, "strides": {"list": {"i": ["1", "1", "1", "1"]}}, "use_cudnn_on_gpu": {"b": true}, "explicit_paddings": {"list": {}}, "padding": {"s": "U0FNRQ=="}}}, {"name": "functional_1/res_block_4_cnn_1_batchnorm/Shape", "op": "Shape", "input": ["functional_1/res_block_4_cnn_1/Conv2D"], "attr": {"T": {"type": "DT_FLOAT"}, "out_type": {"type": "DT_INT32"}}}, {"name": "functional_1/res_block_4_cnn_1_batchnorm/strided_slice", "op": "StridedSlice", "input": ["functional_1/res_block_4_cnn_1_batchnorm/Shape", "functional_1/res_block_4_cnn_1_batchnorm/strided_slice/stack", "functional_1/res_block_4_cnn_1_batchnorm/strided_slice/stack_1", "functional_1/res_block_4_cnn_1_batchnorm/strided_slice/stack_2"], "attr": {"ellipsis_mask": {"i": "0"}, "begin_mask": {"i": "0"}, "new_axis_mask": {"i": "0"}, "end_mask": {"i": "1"}, "Index": {"type": "DT_INT32"}, "T": {"type": "DT_INT32"}, "shrink_axis_mask": {"i": "0"}}}, {"name": "functional_1/res_block_4_cnn_1_batchnorm/concat", "op": "ConcatV2", "input": ["functional_1/res_block_4_cnn_1_batchnorm/Const", "functional_1/res_block_4_cnn_1_batchnorm/strided_slice", "functional_1/res_block_4_cnn_1_batchnorm/concat/axis"], "attr": {"Tidx": {"type": "DT_INT32"}, "T": {"type": "DT_INT32"}, "N": {"i": "2"}}}, {"name": "functional_1/res_block_4_cnn_1_batchnorm/strided_slice_1", "op": "StridedSlice", "input": ["functional_1/res_block_4_cnn_1_batchnorm/concat", "functional_1/res_block_4_cnn_1_batchnorm/strided_slice_1/stack", "functional_1/res_block_4_cnn_1_batchnorm/strided_slice_1/stack_1", "functional_1/res_block_4_cnn_1_batchnorm/strided_slice_1/stack_2"], "attr": {"shrink_axis_mask": {"i": "0"}, "begin_mask": {"i": "0"}, "ellipsis_mask": {"i": "0"}, "new_axis_mask": {"i": "0"}, "end_mask": {"i": "1"}, "T": {"type": "DT_INT32"}, "Index": {"type": "DT_INT32"}}}, {"name": "functional_1/res_block_4_cnn_1_batchnorm/concat_1", "op": "ConcatV2", "input": ["functional_1/res_block_4_cnn_1_batchnorm/Const_1", "functional_1/res_block_4_cnn_1_batchnorm/strided_slice_1", "functional_1/res_block_4_cnn_1_batchnorm/concat_1/axis"], "attr": {"Tidx": {"type": "DT_INT32"}, "T": {"type": "DT_INT32"}, "N": {"i": "2"}}}, {"name": "functional_1/res_block_4_cnn_1_batchnorm/Reshape", "op": "Reshape", "input": ["functional_1/res_block_4_cnn_1/Conv2D", "functional_1/res_block_4_cnn_1_batchnorm/concat_1"], "attr": {"T": {"type": "DT_FLOAT"}, "Tshape": {"type": "DT_INT32"}}}, {"name": "functional_1/res_block_4_cnn_1_batchnorm/batchnorm/mul", "op": "Mul", "input": ["functional_1/res_block_4_cnn_1_batchnorm/Reshape", "functional_1/res_block_4_cnn_1_batchnorm/batchnorm/Rsqrt"], "attr": {"T": {"type": "DT_FLOAT"}}}, {"name": "functional_1/res_block_4_cnn_1_batchnorm/batchnorm/add_1", "op": "AddV2", "input": ["functional_1/res_block_4_cnn_1_batchnorm/batchnorm/mul", "functional_1/res_block_4_cnn_1_batchnorm/batchnorm/sub"], "attr": {"T": {"type": "DT_FLOAT"}}}, {"name": "functional_1/res_block_4_cnn_1_batchnorm/Reshape_1", "op": "Reshape", "input": ["functional_1/res_block_4_cnn_1_batchnorm/batchnorm/add_1", "functional_1/res_block_4_cnn_1_batchnorm/concat"], "attr": {"Tshape": {"type": "DT_INT32"}, "T": {"type": "DT_FLOAT"}}}, {"name": "functional_1/activation_13/Relu", "op": "Relu", "input": ["functional_1/res_block_4_cnn_1_batchnorm/Reshape_1"], "attr": {"T": {"type": "DT_FLOAT"}}}, {"name": "functional_1/res_block_4_cnn_2/Conv2D", "op": "Conv2D", "input": ["functional_1/activation_13/Relu", "functional_1/res_block_4_cnn_2/Conv2D/ReadVariableOp/resource"], "device": "/device:CPU:0", "attr": {"dilations": {"list": {"i": ["1", "1", "1", "1"]}}, "T": {"type": "DT_FLOAT"}, "strides": {"list": {"i": ["1", "1", "1", "1"]}}, "data_format": {"s": "TkNIVw=="}, "use_cudnn_on_gpu": {"b": true}, "explicit_paddings": {"list": {}}, "padding": {"s": "U0FNRQ=="}}}, {"name": "functional_1/res_block_4_cnn_2_batchnorm/Shape", "op": "Shape", "input": ["functional_1/res_block_4_cnn_2/Conv2D"], "attr": {"T": {"type": "DT_FLOAT"}, "out_type": {"type": "DT_INT32"}}}, {"name": "functional_1/res_block_4_cnn_2_batchnorm/strided_slice", "op": "StridedSlice", "input": ["functional_1/res_block_4_cnn_2_batchnorm/Shape", "functional_1/res_block_4_cnn_2_batchnorm/strided_slice/stack", "functional_1/res_block_4_cnn_2_batchnorm/strided_slice/stack_1", "functional_1/res_block_4_cnn_2_batchnorm/strided_slice/stack_2"], "attr": {"shrink_axis_mask": {"i": "0"}, "begin_mask": {"i": "0"}, "ellipsis_mask": {"i": "0"}, "new_axis_mask": {"i": "0"}, "end_mask": {"i": "1"}, "Index": {"type": "DT_INT32"}, "T": {"type": "DT_INT32"}}}, {"name": "functional_1/res_block_4_cnn_2_batchnorm/concat", "op": "ConcatV2", "input": ["functional_1/res_block_4_cnn_2_batchnorm/Const", "functional_1/res_block_4_cnn_2_batchnorm/strided_slice", "functional_1/res_block_4_cnn_2_batchnorm/concat/axis"], "attr": {"T": {"type": "DT_INT32"}, "N": {"i": "2"}, "Tidx": {"type": "DT_INT32"}}}, {"name": "functional_1/res_block_4_cnn_2_batchnorm/strided_slice_1", "op": "StridedSlice", "input": ["functional_1/res_block_4_cnn_2_batchnorm/concat", "functional_1/res_block_4_cnn_2_batchnorm/strided_slice_1/stack", "functional_1/res_block_4_cnn_2_batchnorm/strided_slice_1/stack_1", "functional_1/res_block_4_cnn_2_batchnorm/strided_slice_1/stack_2"], "attr": {"shrink_axis_mask": {"i": "0"}, "ellipsis_mask": {"i": "0"}, "begin_mask": {"i": "0"}, "new_axis_mask": {"i": "0"}, "end_mask": {"i": "1"}, "Index": {"type": "DT_INT32"}, "T": {"type": "DT_INT32"}}}, {"name": "functional_1/res_block_4_cnn_2_batchnorm/concat_1", "op": "ConcatV2", "input": ["functional_1/res_block_4_cnn_2_batchnorm/Const_1", "functional_1/res_block_4_cnn_2_batchnorm/strided_slice_1", "functional_1/res_block_4_cnn_2_batchnorm/concat_1/axis"], "attr": {"T": {"type": "DT_INT32"}, "N": {"i": "2"}, "Tidx": {"type": "DT_INT32"}}}, {"name": "functional_1/res_block_4_cnn_2_batchnorm/Reshape", "op": "Reshape", "input": ["functional_1/res_block_4_cnn_2/Conv2D", "functional_1/res_block_4_cnn_2_batchnorm/concat_1"], "attr": {"T": {"type": "DT_FLOAT"}, "Tshape": {"type": "DT_INT32"}}}, {"name": "functional_1/res_block_4_cnn_2_batchnorm/batchnorm/mul_1", "op": "Mul", "input": ["functional_1/res_block_4_cnn_2_batchnorm/Reshape", "functional_1/res_block_4_cnn_2_batchnorm/batchnorm/mul"], "attr": {"T": {"type": "DT_FLOAT"}}}, {"name": "functional_1/res_block_4_cnn_2_batchnorm/batchnorm/add_1", "op": "AddV2", "input": ["functional_1/res_block_4_cnn_2_batchnorm/batchnorm/mul_1", "functional_1/res_block_4_cnn_2_batchnorm/batchnorm/sub"], "attr": {"T": {"type": "DT_FLOAT"}}}, {"name": "functional_1/res_block_4_cnn_2_batchnorm/Reshape_1", "op": "Reshape", "input": ["functional_1/res_block_4_cnn_2_batchnorm/batchnorm/add_1", "functional_1/res_block_4_cnn_2_batchnorm/concat"], "attr": {"T": {"type": "DT_FLOAT"}, "Tshape": {"type": "DT_INT32"}}}, {"name": "functional_1/global_average_pooling2d_4/Mean", "op": "Mean", "input": ["functional_1/res_block_4_cnn_2_batchnorm/Reshape_1", "functional_1/global_average_pooling2d_4/Mean/reduction_indices"], "attr": {"Tidx": {"type": "DT_INT32"}, "keep_dims": {"b": false}, "T": {"type": "DT_FLOAT"}}}, {"name": "functional_1/activation_14/Relu", "op": "_FusedMatMul", "input": ["functional_1/global_average_pooling2d_4/Mean", "functional_1/res_block_4_squeeze/MatMul/ReadVariableOp/resource", "functional_1/res_block_4_squeeze/BiasAdd/ReadVariableOp/resource"], "device": "/device:CPU:0", "attr": {"epsilon": {"f": 0.0}, "fused_ops": {"list": {"s": ["Qmlhc0FkZA==", "UmVsdQ=="]}}, "transpose_a": {"b": false}, "transpose_b": {"b": false}, "T": {"type": "DT_FLOAT"}, "num_args": {"i": "1"}}}, {"name": "functional_1/res_block_4_excited/BiasAdd", "op": "_FusedMatMul", "input": ["functional_1/activation_14/Relu", "functional_1/res_block_4_excited/MatMul/ReadVariableOp/resource", "functional_1/res_block_4_excited/BiasAdd/ReadVariableOp/resource"], "device": "/device:CPU:0", "attr": {"T": {"type": "DT_FLOAT"}, "num_args": {"i": "1"}, "epsilon": {"f": 0.0}, "fused_ops": {"list": {"s": ["Qmlhc0FkZA=="]}}, "transpose_a": {"b": false}, "transpose_b": {"b": false}}}, {"name": "functional_1/apply_squeeze_excitation_4/Reshape", "op": "Reshape", "input": ["functional_1/res_block_4_excited/BiasAdd", "functional_1/apply_squeeze_excitation_4/Reshape/shape"], "attr": {"T": {"type": "DT_FLOAT"}, "Tshape": {"type": "DT_INT32"}}}, {"name": "functional_1/apply_squeeze_excitation_4/split", "op": "Split", "input": ["functional_1/apply_squeeze_excitation_4/split/split_dim", "functional_1/apply_squeeze_excitation_4/Reshape"], "attr": {"num_split": {"i": "2"}, "T": {"type": "DT_FLOAT"}}}, {"name": "functional_1/apply_squeeze_excitation_4/Sigmoid", "op": "Sigmoid", "input": ["functional_1/apply_squeeze_excitation_4/split"], "attr": {"T": {"type": "DT_FLOAT"}}}, {"name": "functional_1/apply_squeeze_excitation_4/mul", "op": "Mul", "input": ["functional_1/apply_squeeze_excitation_4/Sigmoid", "functional_1/res_block_4_cnn_2_batchnorm/Reshape_1"], "attr": {"T": {"type": "DT_FLOAT"}}}, {"name": "functional_1/add_4/ArithmeticOptimizer/AddOpsRewrite_Leaf_1_add", "op": "AddN", "input": ["functional_1/activation_12/Relu", "functional_1/apply_squeeze_excitation_4/mul"], "attr": {"T": {"type": "DT_FLOAT"}, "N": {"i": "2"}, "_grappler_ArithmeticOptimizer_AddOpsRewriteStage": {"b": true}}}, {"name": "functional_1/add_4/ArithmeticOptimizer/AddOpsRewrite_add", "op": "Add", "input": ["functional_1/apply_squeeze_excitation_4/split:1", "functional_1/add_4/ArithmeticOptimizer/AddOpsRewrite_Leaf_1_add"], "attr": {"T": {"type": "DT_FLOAT"}, "_grappler_ArithmeticOptimizer_AddOpsRewriteStage": {"b": true}}}, {"name": "functional_1/activation_15/Relu", "op": "Relu", "input": ["functional_1/add_4/ArithmeticOptimizer/AddOpsRewrite_add"], "attr": {"T": {"type": "DT_FLOAT"}}}, {"name": "functional_1/res_block_5_cnn_1/Conv2D", "op": "Conv2D", "input": ["functional_1/activation_15/Relu", "functional_1/res_block_5_cnn_1/Conv2D/ReadVariableOp/resource"], "device": "/device:CPU:0", "attr": {"dilations": {"list": {"i": ["1", "1", "1", "1"]}}, "T": {"type": "DT_FLOAT"}, "strides": {"list": {"i": ["1", "1", "1", "1"]}}, "data_format": {"s": "TkNIVw=="}, "explicit_paddings": {"list": {}}, "use_cudnn_on_gpu": {"b": true}, "padding": {"s": "U0FNRQ=="}}}, {"name": "functional_1/res_block_5_cnn_1_batchnorm/Shape", "op": "Shape", "input": ["functional_1/res_block_5_cnn_1/Conv2D"], "attr": {"T": {"type": "DT_FLOAT"}, "out_type": {"type": "DT_INT32"}}}, {"name": "functional_1/res_block_5_cnn_1_batchnorm/strided_slice", "op": "StridedSlice", "input": ["functional_1/res_block_5_cnn_1_batchnorm/Shape", "functional_1/res_block_5_cnn_1_batchnorm/strided_slice/stack", "functional_1/res_block_5_cnn_1_batchnorm/strided_slice/stack_1", "functional_1/res_block_5_cnn_1_batchnorm/strided_slice/stack_2"], "attr": {"Index": {"type": "DT_INT32"}, "T": {"type": "DT_INT32"}, "shrink_axis_mask": {"i": "0"}, "ellipsis_mask": {"i": "0"}, "begin_mask": {"i": "0"}, "new_axis_mask": {"i": "0"}, "end_mask": {"i": "1"}}}, {"name": "functional_1/res_block_5_cnn_1_batchnorm/concat", "op": "ConcatV2", "input": ["functional_1/res_block_5_cnn_1_batchnorm/Const", "functional_1/res_block_5_cnn_1_batchnorm/strided_slice", "functional_1/res_block_5_cnn_1_batchnorm/concat/axis"], "attr": {"T": {"type": "DT_INT32"}, "N": {"i": "2"}, "Tidx": {"type": "DT_INT32"}}}, {"name": "functional_1/res_block_5_cnn_1_batchnorm/strided_slice_1", "op": "StridedSlice", "input": ["functional_1/res_block_5_cnn_1_batchnorm/concat", "functional_1/res_block_5_cnn_1_batchnorm/strided_slice_1/stack", "functional_1/res_block_5_cnn_1_batchnorm/strided_slice_1/stack_1", "functional_1/res_block_5_cnn_1_batchnorm/strided_slice_1/stack_2"], "attr": {"Index": {"type": "DT_INT32"}, "T": {"type": "DT_INT32"}, "shrink_axis_mask": {"i": "0"}, "begin_mask": {"i": "0"}, "ellipsis_mask": {"i": "0"}, "new_axis_mask": {"i": "0"}, "end_mask": {"i": "1"}}}, {"name": "functional_1/res_block_5_cnn_1_batchnorm/concat_1", "op": "ConcatV2", "input": ["functional_1/res_block_5_cnn_1_batchnorm/Const_1", "functional_1/res_block_5_cnn_1_batchnorm/strided_slice_1", "functional_1/res_block_5_cnn_1_batchnorm/concat_1/axis"], "attr": {"N": {"i": "2"}, "Tidx": {"type": "DT_INT32"}, "T": {"type": "DT_INT32"}}}, {"name": "functional_1/res_block_5_cnn_1_batchnorm/Reshape", "op": "Reshape", "input": ["functional_1/res_block_5_cnn_1/Conv2D", "functional_1/res_block_5_cnn_1_batchnorm/concat_1"], "attr": {"T": {"type": "DT_FLOAT"}, "Tshape": {"type": "DT_INT32"}}}, {"name": "functional_1/res_block_5_cnn_1_batchnorm/batchnorm/mul", "op": "Mul", "input": ["functional_1/res_block_5_cnn_1_batchnorm/Reshape", "functional_1/res_block_5_cnn_1_batchnorm/batchnorm/Rsqrt"], "attr": {"T": {"type": "DT_FLOAT"}}}, {"name": "functional_1/res_block_5_cnn_1_batchnorm/batchnorm/add_1", "op": "AddV2", "input": ["functional_1/res_block_5_cnn_1_batchnorm/batchnorm/mul", "functional_1/res_block_5_cnn_1_batchnorm/batchnorm/sub"], "attr": {"T": {"type": "DT_FLOAT"}}}, {"name": "functional_1/res_block_5_cnn_1_batchnorm/Reshape_1", "op": "Reshape", "input": ["functional_1/res_block_5_cnn_1_batchnorm/batchnorm/add_1", "functional_1/res_block_5_cnn_1_batchnorm/concat"], "attr": {"T": {"type": "DT_FLOAT"}, "Tshape": {"type": "DT_INT32"}}}, {"name": "functional_1/activation_16/Relu", "op": "Relu", "input": ["functional_1/res_block_5_cnn_1_batchnorm/Reshape_1"], "attr": {"T": {"type": "DT_FLOAT"}}}, {"name": "functional_1/res_block_5_cnn_2/Conv2D", "op": "Conv2D", "input": ["functional_1/activation_16/Relu", "functional_1/res_block_5_cnn_2/Conv2D/ReadVariableOp/resource"], "device": "/device:CPU:0", "attr": {"padding": {"s": "U0FNRQ=="}, "dilations": {"list": {"i": ["1", "1", "1", "1"]}}, "T": {"type": "DT_FLOAT"}, "data_format": {"s": "TkNIVw=="}, "strides": {"list": {"i": ["1", "1", "1", "1"]}}, "use_cudnn_on_gpu": {"b": true}, "explicit_paddings": {"list": {}}}}, {"name": "functional_1/res_block_5_cnn_2_batchnorm/Shape", "op": "Shape", "input": ["functional_1/res_block_5_cnn_2/Conv2D"], "attr": {"out_type": {"type": "DT_INT32"}, "T": {"type": "DT_FLOAT"}}}, {"name": "functional_1/res_block_5_cnn_2_batchnorm/strided_slice", "op": "StridedSlice", "input": ["functional_1/res_block_5_cnn_2_batchnorm/Shape", "functional_1/res_block_5_cnn_2_batchnorm/strided_slice/stack", "functional_1/res_block_5_cnn_2_batchnorm/strided_slice/stack_1", "functional_1/res_block_5_cnn_2_batchnorm/strided_slice/stack_2"], "attr": {"shrink_axis_mask": {"i": "0"}, "begin_mask": {"i": "0"}, "ellipsis_mask": {"i": "0"}, "new_axis_mask": {"i": "0"}, "end_mask": {"i": "1"}, "Index": {"type": "DT_INT32"}, "T": {"type": "DT_INT32"}}}, {"name": "functional_1/res_block_5_cnn_2_batchnorm/concat", "op": "ConcatV2", "input": ["functional_1/res_block_5_cnn_2_batchnorm/Const", "functional_1/res_block_5_cnn_2_batchnorm/strided_slice", "functional_1/res_block_5_cnn_2_batchnorm/concat/axis"], "attr": {"T": {"type": "DT_INT32"}, "N": {"i": "2"}, "Tidx": {"type": "DT_INT32"}}}, {"name": "functional_1/res_block_5_cnn_2_batchnorm/strided_slice_1", "op": "StridedSlice", "input": ["functional_1/res_block_5_cnn_2_batchnorm/concat", "functional_1/res_block_5_cnn_2_batchnorm/strided_slice_1/stack", "functional_1/res_block_5_cnn_2_batchnorm/strided_slice_1/stack_1", "functional_1/res_block_5_cnn_2_batchnorm/strided_slice_1/stack_2"], "attr": {"shrink_axis_mask": {"i": "0"}, "begin_mask": {"i": "0"}, "ellipsis_mask": {"i": "0"}, "new_axis_mask": {"i": "0"}, "end_mask": {"i": "1"}, "Index": {"type": "DT_INT32"}, "T": {"type": "DT_INT32"}}}, {"name": "functional_1/res_block_5_cnn_2_batchnorm/concat_1", "op": "ConcatV2", "input": ["functional_1/res_block_5_cnn_2_batchnorm/Const_1", "functional_1/res_block_5_cnn_2_batchnorm/strided_slice_1", "functional_1/res_block_5_cnn_2_batchnorm/concat_1/axis"], "attr": {"Tidx": {"type": "DT_INT32"}, "T": {"type": "DT_INT32"}, "N": {"i": "2"}}}, {"name": "functional_1/res_block_5_cnn_2_batchnorm/Reshape", "op": "Reshape", "input": ["functional_1/res_block_5_cnn_2/Conv2D", "functional_1/res_block_5_cnn_2_batchnorm/concat_1"], "attr": {"T": {"type": "DT_FLOAT"}, "Tshape": {"type": "DT_INT32"}}}, {"name": "functional_1/res_block_5_cnn_2_batchnorm/batchnorm/mul_1", "op": "Mul", "input": ["functional_1/res_block_5_cnn_2_batchnorm/Reshape", "functional_1/res_block_5_cnn_2_batchnorm/batchnorm/mul"], "attr": {"T": {"type": "DT_FLOAT"}}}, {"name": "functional_1/res_block_5_cnn_2_batchnorm/batchnorm/add_1", "op": "AddV2", "input": ["functional_1/res_block_5_cnn_2_batchnorm/batchnorm/mul_1", "functional_1/res_block_5_cnn_2_batchnorm/batchnorm/sub"], "attr": {"T": {"type": "DT_FLOAT"}}}, {"name": "functional_1/res_block_5_cnn_2_batchnorm/Reshape_1", "op": "Reshape", "input": ["functional_1/res_block_5_cnn_2_batchnorm/batchnorm/add_1", "functional_1/res_block_5_cnn_2_batchnorm/concat"], "attr": {"T": {"type": "DT_FLOAT"}, "Tshape": {"type": "DT_INT32"}}}, {"name": "functional_1/global_average_pooling2d_5/Mean", "op": "Mean", "input": ["functional_1/res_block_5_cnn_2_batchnorm/Reshape_1", "functional_1/global_average_pooling2d_5/Mean/reduction_indices"], "attr": {"T": {"type": "DT_FLOAT"}, "Tidx": {"type": "DT_INT32"}, "keep_dims": {"b": false}}}, {"name": "functional_1/activation_17/Relu", "op": "_FusedMatMul", "input": ["functional_1/global_average_pooling2d_5/Mean", "functional_1/res_block_5_squeeze/MatMul/ReadVariableOp/resource", "functional_1/res_block_5_squeeze/BiasAdd/ReadVariableOp/resource"], "device": "/device:CPU:0", "attr": {"transpose_b": {"b": false}, "T": {"type": "DT_FLOAT"}, "num_args": {"i": "1"}, "epsilon": {"f": 0.0}, "fused_ops": {"list": {"s": ["Qmlhc0FkZA==", "UmVsdQ=="]}}, "transpose_a": {"b": false}}}, {"name": "functional_1/res_block_5_excited/BiasAdd", "op": "_FusedMatMul", "input": ["functional_1/activation_17/Relu", "functional_1/res_block_5_excited/MatMul/ReadVariableOp/resource", "functional_1/res_block_5_excited/BiasAdd/ReadVariableOp/resource"], "device": "/device:CPU:0", "attr": {"epsilon": {"f": 0.0}, "fused_ops": {"list": {"s": ["Qmlhc0FkZA=="]}}, "transpose_a": {"b": false}, "transpose_b": {"b": false}, "T": {"type": "DT_FLOAT"}, "num_args": {"i": "1"}}}, {"name": "functional_1/apply_squeeze_excitation_5/Reshape", "op": "Reshape", "input": ["functional_1/res_block_5_excited/BiasAdd", "functional_1/apply_squeeze_excitation_5/Reshape/shape"], "attr": {"T": {"type": "DT_FLOAT"}, "Tshape": {"type": "DT_INT32"}}}, {"name": "functional_1/apply_squeeze_excitation_5/split", "op": "Split", "input": ["functional_1/apply_squeeze_excitation_5/split/split_dim", "functional_1/apply_squeeze_excitation_5/Reshape"], "attr": {"T": {"type": "DT_FLOAT"}, "num_split": {"i": "2"}}}, {"name": "functional_1/apply_squeeze_excitation_5/Sigmoid", "op": "Sigmoid", "input": ["functional_1/apply_squeeze_excitation_5/split"], "attr": {"T": {"type": "DT_FLOAT"}}}, {"name": "functional_1/apply_squeeze_excitation_5/mul", "op": "Mul", "input": ["functional_1/apply_squeeze_excitation_5/Sigmoid", "functional_1/res_block_5_cnn_2_batchnorm/Reshape_1"], "attr": {"T": {"type": "DT_FLOAT"}}}, {"name": "functional_1/add_5/ArithmeticOptimizer/AddOpsRewrite_Leaf_1_add", "op": "AddN", "input": ["functional_1/activation_15/Relu", "functional_1/apply_squeeze_excitation_5/mul"], "attr": {"N": {"i": "2"}, "_grappler_ArithmeticOptimizer_AddOpsRewriteStage": {"b": true}, "T": {"type": "DT_FLOAT"}}}, {"name": "functional_1/add_5/ArithmeticOptimizer/AddOpsRewrite_add", "op": "Add", "input": ["functional_1/apply_squeeze_excitation_5/split:1", "functional_1/add_5/ArithmeticOptimizer/AddOpsRewrite_Leaf_1_add"], "attr": {"_grappler_ArithmeticOptimizer_AddOpsRewriteStage": {"b": true}, "T": {"type": "DT_FLOAT"}}}, {"name": "functional_1/activation_18/Relu", "op": "Relu", "input": ["functional_1/add_5/ArithmeticOptimizer/AddOpsRewrite_add"], "attr": {"T": {"type": "DT_FLOAT"}}}, {"name": "functional_1/policy_cnn_1/Conv2D", "op": "Conv2D", "input": ["functional_1/activation_18/Relu", "functional_1/policy_cnn_1/Conv2D/ReadVariableOp/resource"], "device": "/device:CPU:0", "attr": {"padding": {"s": "U0FNRQ=="}, "dilations": {"list": {"i": ["1", "1", "1", "1"]}}, "T": {"type": "DT_FLOAT"}, "strides": {"list": {"i": ["1", "1", "1", "1"]}}, "data_format": {"s": "TkNIVw=="}, "explicit_paddings": {"list": {}}, "use_cudnn_on_gpu": {"b": true}}}, {"name": "functional_1/policy_cnn_1_batchnorm/Shape", "op": "Shape", "input": ["functional_1/policy_cnn_1/Conv2D"], "attr": {"T": {"type": "DT_FLOAT"}, "out_type": {"type": "DT_INT32"}}}, {"name": "functional_1/policy_cnn_1_batchnorm/strided_slice", "op": "StridedSlice", "input": ["functional_1/policy_cnn_1_batchnorm/Shape", "functional_1/policy_cnn_1_batchnorm/strided_slice/stack", "functional_1/policy_cnn_1_batchnorm/strided_slice/stack_1", "functional_1/policy_cnn_1_batchnorm/strided_slice/stack_2"], "attr": {"ellipsis_mask": {"i": "0"}, "begin_mask": {"i": "0"}, "new_axis_mask": {"i": "0"}, "end_mask": {"i": "1"}, "T": {"type": "DT_INT32"}, "Index": {"type": "DT_INT32"}, "shrink_axis_mask": {"i": "0"}}}, {"name": "functional_1/policy_cnn_1_batchnorm/concat", "op": "ConcatV2", "input": ["functional_1/policy_cnn_1_batchnorm/Const", "functional_1/policy_cnn_1_batchnorm/strided_slice", "functional_1/policy_cnn_1_batchnorm/concat/axis"], "attr": {"T": {"type": "DT_INT32"}, "N": {"i": "2"}, "Tidx": {"type": "DT_INT32"}}}, {"name": "functional_1/policy_cnn_1_batchnorm/strided_slice_1", "op": "StridedSlice", "input": ["functional_1/policy_cnn_1_batchnorm/concat", "functional_1/policy_cnn_1_batchnorm/strided_slice_1/stack", "functional_1/policy_cnn_1_batchnorm/strided_slice_1/stack_1", "functional_1/policy_cnn_1_batchnorm/strided_slice_1/stack_2"], "attr": {"new_axis_mask": {"i": "0"}, "end_mask": {"i": "1"}, "T": {"type": "DT_INT32"}, "Index": {"type": "DT_INT32"}, "shrink_axis_mask": {"i": "0"}, "ellipsis_mask": {"i": "0"}, "begin_mask": {"i": "0"}}}, {"name": "functional_1/policy_cnn_1_batchnorm/concat_1", "op": "ConcatV2", "input": ["functional_1/policy_cnn_1_batchnorm/Const_1", "functional_1/policy_cnn_1_batchnorm/strided_slice_1", "functional_1/policy_cnn_1_batchnorm/concat_1/axis"], "attr": {"T": {"type": "DT_INT32"}, "N": {"i": "2"}, "Tidx": {"type": "DT_INT32"}}}, {"name": "functional_1/policy_cnn_1_batchnorm/Reshape", "op": "Reshape", "input": ["functional_1/policy_cnn_1/Conv2D", "functional_1/policy_cnn_1_batchnorm/concat_1"], "attr": {"T": {"type": "DT_FLOAT"}, "Tshape": {"type": "DT_INT32"}}}, {"name": "functional_1/policy_cnn_1_batchnorm/batchnorm/mul", "op": "Mul", "input": ["functional_1/policy_cnn_1_batchnorm/Reshape", "functional_1/policy_cnn_1_batchnorm/batchnorm/Rsqrt"], "attr": {"T": {"type": "DT_FLOAT"}}}, {"name": "functional_1/policy_cnn_1_batchnorm/batchnorm/add_1", "op": "AddV2", "input": ["functional_1/policy_cnn_1_batchnorm/batchnorm/mul", "functional_1/policy_cnn_1_batchnorm/batchnorm/sub"], "attr": {"T": {"type": "DT_FLOAT"}}}, {"name": "functional_1/policy_cnn_1_batchnorm/Reshape_1", "op": "Reshape", "input": ["functional_1/policy_cnn_1_batchnorm/batchnorm/add_1", "functional_1/policy_cnn_1_batchnorm/concat"], "attr": {"T": {"type": "DT_FLOAT"}, "Tshape": {"type": "DT_INT32"}}}, {"name": "functional_1/activation_19/Relu", "op": "Relu", "input": ["functional_1/policy_cnn_1_batchnorm/Reshape_1"], "attr": {"T": {"type": "DT_FLOAT"}}}, {"name": "functional_1/policy_cnn_2/Conv2D", "op": "Conv2D", "input": ["functional_1/activation_19/Relu", "functional_1/policy_cnn_2/Conv2D/ReadVariableOp/resource"], "device": "/device:CPU:0", "attr": {"dilations": {"list": {"i": ["1", "1", "1", "1"]}}, "T": {"type": "DT_FLOAT"}, "strides": {"list": {"i": ["1", "1", "1", "1"]}}, "data_format": {"s": "TkNIVw=="}, "use_cudnn_on_gpu": {"b": true}, "explicit_paddings": {"list": {}}, "padding": {"s": "U0FNRQ=="}}}, {"name": "functional_1/policy_cnn_2/BiasAdd", "op": "BiasAdd", "input": ["functional_1/policy_cnn_2/Conv2D", "functional_1/policy_cnn_2/BiasAdd/ReadVariableOp/resource"], "attr": {"T": {"type": "DT_FLOAT"}, "data_format": {"s": "TkNIVw=="}}}, {"name": "functional_1/apply_policy_map/Reshape", "op": "Reshape", "input": ["functional_1/policy_cnn_2/BiasAdd", "functional_1/apply_policy_map/Reshape/shape"], "attr": {"T": {"type": "DT_FLOAT"}, "Tshape": {"type": "DT_INT32"}}}, {"name": "functional_1/apply_policy_map/MatMul", "op": "MatMul", "input": ["functional_1/apply_policy_map/Reshape", "functional_1/apply_policy_map/MatMul/b"], "device": "/device:CPU:0", "attr": {"transpose_a": {"b": false}, "transpose_b": {"b": false}, "T": {"type": "DT_FLOAT"}}}, {"name": "Identity", "op": "Identity", "input": ["functional_1/apply_policy_map/MatMul"], "attr": {"T": {"type": "DT_FLOAT"}}}], "library": {}, "versions": {"producer": 440}}, "weightsManifest": [{"paths": ["group1-shard1of3.bin", "group1-shard2of3.bin", "group1-shard3of3.bin"], "weights": [{"name": "functional_1/policy_cnn_1_batchnorm/Const_1", "shape": [2], "dtype": "int32"}, {"name": "functional_1/policy_cnn_1_batchnorm/strided_slice_1/stack", "shape": [1], "dtype": "int32"}, {"name": "functional_1/policy_cnn_1_batchnorm/strided_slice_1/stack_1", "shape": [1], "dtype": "int32"}, {"name": "functional_1/policy_cnn_1_batchnorm/strided_slice_1/stack_2", "shape": [1], "dtype": "int32"}, {"name": "functional_1/policy_cnn_1_batchnorm/concat_1/axis", "shape": [], "dtype": "int32"}, {"name": "functional_1/policy_cnn_1_batchnorm/batchnorm/Rsqrt", "shape": [1, 1, 64, 1, 1], "dtype": "float32"}, {"name": "functional_1/policy_cnn_1_batchnorm/batchnorm/sub", "shape": [1, 1, 64, 1, 1], "dtype": "float32"}, {"name": "functional_1/policy_cnn_1_batchnorm/Const", "shape": [1], "dtype": "int32"}, {"name": "functional_1/apply_squeeze_excitation_5/split/split_dim", "shape": [], "dtype": "int32"}, {"name": "functional_1/global_average_pooling2d_5/Mean/reduction_indices", "shape": [2], "dtype": "int32"}, {"name": "functional_1/res_block_5_squeeze/MatMul/ReadVariableOp/resource", "shape": [64, 8], "dtype": "float32"}, {"name": "functional_1/res_block_5_squeeze/BiasAdd/ReadVariableOp/resource", "shape": [8], "dtype": "float32"}, {"name": "functional_1/res_block_5_excited/MatMul/ReadVariableOp/resource", "shape": [8, 128], "dtype": "float32"}, {"name": "functional_1/res_block_5_excited/BiasAdd/ReadVariableOp/resource", "shape": [128], "dtype": "float32"}, {"name": "functional_1/apply_squeeze_excitation_5/Reshape/shape", "shape": [4], "dtype": "int32"}, {"name": "functional_1/res_block_5_cnn_2_batchnorm/Const_1", "shape": [2], "dtype": "int32"}, {"name": "functional_1/res_block_5_cnn_2_batchnorm/strided_slice_1/stack", "shape": [1], "dtype": "int32"}, {"name": "functional_1/res_block_5_cnn_2_batchnorm/strided_slice_1/stack_1", "shape": [1], "dtype": "int32"}, {"name": "functional_1/res_block_5_cnn_2_batchnorm/strided_slice_1/stack_2", "shape": [1], "dtype": "int32"}, {"name": "functional_1/res_block_5_cnn_2_batchnorm/concat_1/axis", "shape": [], "dtype": "int32"}, {"name": "functional_1/res_block_5_cnn_2_batchnorm/batchnorm/mul", "shape": [1, 1, 64, 1, 1], "dtype": "float32"}, {"name": "functional_1/res_block_5_cnn_2_batchnorm/batchnorm/sub", "shape": [1, 1, 64, 1, 1], "dtype": "float32"}, {"name": "functional_1/res_block_5_cnn_2_batchnorm/Const", "shape": [1], "dtype": "int32"}, {"name": "functional_1/res_block_5_cnn_1_batchnorm/Const_1", "shape": [2], "dtype": "int32"}, {"name": "functional_1/res_block_5_cnn_1_batchnorm/strided_slice_1/stack", "shape": [1], "dtype": "int32"}, {"name": "functional_1/res_block_5_cnn_1_batchnorm/strided_slice_1/stack_1", "shape": [1], "dtype": "int32"}, {"name": "functional_1/res_block_5_cnn_1_batchnorm/strided_slice_1/stack_2", "shape": [1], "dtype": "int32"}, {"name": "functional_1/res_block_5_cnn_1_batchnorm/concat_1/axis", "shape": [], "dtype": "int32"}, {"name": "functional_1/res_block_5_cnn_1_batchnorm/batchnorm/Rsqrt", "shape": [1, 1, 64, 1, 1], "dtype": "float32"}, {"name": "functional_1/res_block_5_cnn_1_batchnorm/batchnorm/sub", "shape": [1, 1, 64, 1, 1], "dtype": "float32"}, {"name": "functional_1/res_block_5_cnn_1_batchnorm/Const", "shape": [1], "dtype": "int32"}, {"name": "functional_1/apply_squeeze_excitation_4/split/split_dim", "shape": [], "dtype": "int32"}, {"name": "functional_1/global_average_pooling2d_4/Mean/reduction_indices", "shape": [2], "dtype": "int32"}, {"name": "functional_1/res_block_4_squeeze/MatMul/ReadVariableOp/resource", "shape": [64, 8], "dtype": "float32"}, {"name": "functional_1/res_block_4_squeeze/BiasAdd/ReadVariableOp/resource", "shape": [8], "dtype": "float32"}, {"name": "functional_1/res_block_4_excited/MatMul/ReadVariableOp/resource", "shape": [8, 128], "dtype": "float32"}, {"name": "functional_1/res_block_4_excited/BiasAdd/ReadVariableOp/resource", "shape": [128], "dtype": "float32"}, {"name": "functional_1/apply_squeeze_excitation_4/Reshape/shape", "shape": [4], "dtype": "int32"}, {"name": "functional_1/res_block_4_cnn_2_batchnorm/Const_1", "shape": [2], "dtype": "int32"}, {"name": "functional_1/res_block_4_cnn_2_batchnorm/strided_slice_1/stack", "shape": [1], "dtype": "int32"}, {"name": "functional_1/res_block_4_cnn_2_batchnorm/strided_slice_1/stack_1", "shape": [1], "dtype": "int32"}, {"name": "functional_1/res_block_4_cnn_2_batchnorm/strided_slice_1/stack_2", "shape": [1], "dtype": "int32"}, {"name": "functional_1/res_block_4_cnn_2_batchnorm/concat_1/axis", "shape": [], "dtype": "int32"}, {"name": "functional_1/res_block_4_cnn_2_batchnorm/batchnorm/mul", "shape": [1, 1, 64, 1, 1], "dtype": "float32"}, {"name": "functional_1/res_block_4_cnn_2_batchnorm/batchnorm/sub", "shape": [1, 1, 64, 1, 1], "dtype": "float32"}, {"name": "functional_1/res_block_4_cnn_2_batchnorm/Const", "shape": [1], "dtype": "int32"}, {"name": "functional_1/res_block_4_cnn_1_batchnorm/Const_1", "shape": [2], "dtype": "int32"}, {"name": "functional_1/res_block_4_cnn_1_batchnorm/strided_slice_1/stack", "shape": [1], "dtype": "int32"}, {"name": "functional_1/res_block_4_cnn_1_batchnorm/strided_slice_1/stack_1", "shape": [1], "dtype": "int32"}, {"name": "functional_1/res_block_4_cnn_1_batchnorm/strided_slice_1/stack_2", "shape": [1], "dtype": "int32"}, {"name": "functional_1/res_block_4_cnn_1_batchnorm/concat_1/axis", "shape": [], "dtype": "int32"}, {"name": "functional_1/res_block_4_cnn_1_batchnorm/batchnorm/Rsqrt", "shape": [1, 1, 64, 1, 1], "dtype": "float32"}, {"name": "functional_1/res_block_4_cnn_1_batchnorm/batchnorm/sub", "shape": [1, 1, 64, 1, 1], "dtype": "float32"}, {"name": "functional_1/res_block_4_cnn_1_batchnorm/Const", "shape": [1], "dtype": "int32"}, {"name": "functional_1/apply_squeeze_excitation_3/split/split_dim", "shape": [], "dtype": "int32"}, {"name": "functional_1/global_average_pooling2d_3/Mean/reduction_indices", "shape": [2], "dtype": "int32"}, {"name": "functional_1/res_block_3_squeeze/MatMul/ReadVariableOp/resource", "shape": [64, 8], "dtype": "float32"}, {"name": "functional_1/res_block_3_squeeze/BiasAdd/ReadVariableOp/resource", "shape": [8], "dtype": "float32"}, {"name": "functional_1/res_block_3_excited/MatMul/ReadVariableOp/resource", "shape": [8, 128], "dtype": "float32"}, {"name": "functional_1/res_block_3_excited/BiasAdd/ReadVariableOp/resource", "shape": [128], "dtype": "float32"}, {"name": "functional_1/apply_squeeze_excitation_3/Reshape/shape", "shape": [4], "dtype": "int32"}, {"name": "functional_1/res_block_3_cnn_2_batchnorm/Const_1", "shape": [2], "dtype": "int32"}, {"name": "functional_1/res_block_3_cnn_2_batchnorm/strided_slice_1/stack", "shape": [1], "dtype": "int32"}, {"name": "functional_1/res_block_3_cnn_2_batchnorm/strided_slice_1/stack_1", "shape": [1], "dtype": "int32"}, {"name": "functional_1/res_block_3_cnn_2_batchnorm/strided_slice_1/stack_2", "shape": [1], "dtype": "int32"}, {"name": "functional_1/res_block_3_cnn_2_batchnorm/concat_1/axis", "shape": [], "dtype": "int32"}, {"name": "functional_1/res_block_3_cnn_2_batchnorm/batchnorm/mul", "shape": [1, 1, 64, 1, 1], "dtype": "float32"}, {"name": "functional_1/res_block_3_cnn_2_batchnorm/batchnorm/sub", "shape": [1, 1, 64, 1, 1], "dtype": "float32"}, {"name": "functional_1/res_block_3_cnn_2_batchnorm/Const", "shape": [1], "dtype": "int32"}, {"name": "functional_1/res_block_3_cnn_1_batchnorm/Const_1", "shape": [2], "dtype": "int32"}, {"name": "functional_1/res_block_3_cnn_1_batchnorm/strided_slice_1/stack", "shape": [1], "dtype": "int32"}, {"name": "functional_1/res_block_3_cnn_1_batchnorm/strided_slice_1/stack_1", "shape": [1], "dtype": "int32"}, {"name": "functional_1/res_block_3_cnn_1_batchnorm/strided_slice_1/stack_2", "shape": [1], "dtype": "int32"}, {"name": "functional_1/res_block_3_cnn_1_batchnorm/concat_1/axis", "shape": [], "dtype": "int32"}, {"name": "functional_1/res_block_3_cnn_1_batchnorm/batchnorm/Rsqrt", "shape": [1, 1, 64, 1, 1], "dtype": "float32"}, {"name": "functional_1/res_block_3_cnn_1_batchnorm/batchnorm/sub", "shape": [1, 1, 64, 1, 1], "dtype": "float32"}, {"name": "functional_1/res_block_3_cnn_1_batchnorm/Const", "shape": [1], "dtype": "int32"}, {"name": "functional_1/apply_squeeze_excitation_2/split/split_dim", "shape": [], "dtype": "int32"}, {"name": "functional_1/global_average_pooling2d_2/Mean/reduction_indices", "shape": [2], "dtype": "int32"}, {"name": "functional_1/res_block_2_squeeze/MatMul/ReadVariableOp/resource", "shape": [64, 8], "dtype": "float32"}, {"name": "functional_1/res_block_2_squeeze/BiasAdd/ReadVariableOp/resource", "shape": [8], "dtype": "float32"}, {"name": "functional_1/res_block_2_excited/MatMul/ReadVariableOp/resource", "shape": [8, 128], "dtype": "float32"}, {"name": "functional_1/res_block_2_excited/BiasAdd/ReadVariableOp/resource", "shape": [128], "dtype": "float32"}, {"name": "functional_1/apply_squeeze_excitation_2/Reshape/shape", "shape": [4], "dtype": "int32"}, {"name": "functional_1/res_block_2_cnn_2_batchnorm/Const_1", "shape": [2], "dtype": "int32"}, {"name": "functional_1/res_block_2_cnn_2_batchnorm/strided_slice_1/stack", "shape": [1], "dtype": "int32"}, {"name": "functional_1/res_block_2_cnn_2_batchnorm/strided_slice_1/stack_1", "shape": [1], "dtype": "int32"}, {"name": "functional_1/res_block_2_cnn_2_batchnorm/strided_slice_1/stack_2", "shape": [1], "dtype": "int32"}, {"name": "functional_1/res_block_2_cnn_2_batchnorm/concat_1/axis", "shape": [], "dtype": "int32"}, {"name": "functional_1/res_block_2_cnn_2_batchnorm/batchnorm/mul", "shape": [1, 1, 64, 1, 1], "dtype": "float32"}, {"name": "functional_1/res_block_2_cnn_2_batchnorm/batchnorm/sub", "shape": [1, 1, 64, 1, 1], "dtype": "float32"}, {"name": "functional_1/res_block_2_cnn_2_batchnorm/Const", "shape": [1], "dtype": "int32"}, {"name": "functional_1/res_block_2_cnn_1_batchnorm/Const_1", "shape": [2], "dtype": "int32"}, {"name": "functional_1/res_block_2_cnn_1_batchnorm/strided_slice_1/stack", "shape": [1], "dtype": "int32"}, {"name": "functional_1/res_block_2_cnn_1_batchnorm/strided_slice_1/stack_1", "shape": [1], "dtype": "int32"}, {"name": "functional_1/res_block_2_cnn_1_batchnorm/strided_slice_1/stack_2", "shape": [1], "dtype": "int32"}, {"name": "functional_1/res_block_2_cnn_1_batchnorm/concat_1/axis", "shape": [], "dtype": "int32"}, {"name": "functional_1/res_block_2_cnn_1_batchnorm/batchnorm/Rsqrt", "shape": [1, 1, 64, 1, 1], "dtype": "float32"}, {"name": "functional_1/res_block_2_cnn_1_batchnorm/batchnorm/sub", "shape": [1, 1, 64, 1, 1], "dtype": "float32"}, {"name": "functional_1/res_block_2_cnn_1_batchnorm/Const", "shape": [1], "dtype": "int32"}, {"name": "functional_1/apply_squeeze_excitation_1/split/split_dim", "shape": [], "dtype": "int32"}, {"name": "functional_1/global_average_pooling2d_1/Mean/reduction_indices", "shape": [2], "dtype": "int32"}, {"name": "functional_1/res_block_1_squeeze/MatMul/ReadVariableOp/resource", "shape": [64, 8], "dtype": "float32"}, {"name": "functional_1/res_block_1_squeeze/BiasAdd/ReadVariableOp/resource", "shape": [8], "dtype": "float32"}, {"name": "functional_1/res_block_1_excited/MatMul/ReadVariableOp/resource", "shape": [8, 128], "dtype": "float32"}, {"name": "functional_1/res_block_1_excited/BiasAdd/ReadVariableOp/resource", "shape": [128], "dtype": "float32"}, {"name": "functional_1/apply_squeeze_excitation_1/Reshape/shape", "shape": [4], "dtype": "int32"}, {"name": "functional_1/res_block_1_cnn_2_batchnorm/Const_1", "shape": [2], "dtype": "int32"}, {"name": "functional_1/res_block_1_cnn_2_batchnorm/strided_slice_1/stack", "shape": [1], "dtype": "int32"}, {"name": "functional_1/res_block_1_cnn_2_batchnorm/strided_slice_1/stack_1", "shape": [1], "dtype": "int32"}, {"name": "functional_1/res_block_1_cnn_2_batchnorm/strided_slice_1/stack_2", "shape": [1], "dtype": "int32"}, {"name": "functional_1/res_block_1_cnn_2_batchnorm/concat_1/axis", "shape": [], "dtype": "int32"}, {"name": "functional_1/res_block_1_cnn_2_batchnorm/batchnorm/mul", "shape": [1, 1, 64, 1, 1], "dtype": "float32"}, {"name": "functional_1/res_block_1_cnn_2_batchnorm/batchnorm/sub", "shape": [1, 1, 64, 1, 1], "dtype": "float32"}, {"name": "functional_1/res_block_1_cnn_2_batchnorm/Const", "shape": [1], "dtype": "int32"}, {"name": "functional_1/res_block_1_cnn_1_batchnorm/Const_1", "shape": [2], "dtype": "int32"}, {"name": "functional_1/res_block_1_cnn_1_batchnorm/strided_slice_1/stack", "shape": [1], "dtype": "int32"}, {"name": "functional_1/res_block_1_cnn_1_batchnorm/strided_slice_1/stack_1", "shape": [1], "dtype": "int32"}, {"name": "functional_1/res_block_1_cnn_1_batchnorm/strided_slice_1/stack_2", "shape": [1], "dtype": "int32"}, {"name": "functional_1/res_block_1_cnn_1_batchnorm/concat_1/axis", "shape": [], "dtype": "int32"}, {"name": "functional_1/res_block_1_cnn_1_batchnorm/batchnorm/Rsqrt", "shape": [1, 1, 64, 1, 1], "dtype": "float32"}, {"name": "functional_1/res_block_1_cnn_1_batchnorm/batchnorm/sub", "shape": [1, 1, 64, 1, 1], "dtype": "float32"}, {"name": "functional_1/res_block_1_cnn_1_batchnorm/Const", "shape": [1], "dtype": "int32"}, {"name": "functional_1/apply_squeeze_excitation/split/split_dim", "shape": [], "dtype": "int32"}, {"name": "functional_1/global_average_pooling2d/Mean/reduction_indices", "shape": [2], "dtype": "int32"}, {"name": "functional_1/res_block_0_squeeze/MatMul/ReadVariableOp/resource", "shape": [64, 8], "dtype": "float32"}, {"name": "functional_1/res_block_0_squeeze/BiasAdd/ReadVariableOp/resource", "shape": [8], "dtype": "float32"}, {"name": "functional_1/res_block_0_excited/MatMul/ReadVariableOp/resource", "shape": [8, 128], "dtype": "float32"}, {"name": "functional_1/res_block_0_excited/BiasAdd/ReadVariableOp/resource", "shape": [128], "dtype": "float32"}, {"name": "functional_1/apply_squeeze_excitation/Reshape/shape", "shape": [4], "dtype": "int32"}, {"name": "functional_1/res_block_0_cnn_2_batchnorm/Const_1", "shape": [2], "dtype": "int32"}, {"name": "functional_1/res_block_0_cnn_2_batchnorm/strided_slice_1/stack", "shape": [1], "dtype": "int32"}, {"name": "functional_1/res_block_0_cnn_2_batchnorm/strided_slice_1/stack_1", "shape": [1], "dtype": "int32"}, {"name": "functional_1/res_block_0_cnn_2_batchnorm/strided_slice_1/stack_2", "shape": [1], "dtype": "int32"}, {"name": "functional_1/res_block_0_cnn_2_batchnorm/concat_1/axis", "shape": [], "dtype": "int32"}, {"name": "functional_1/res_block_0_cnn_2_batchnorm/batchnorm/mul", "shape": [1, 1, 64, 1, 1], "dtype": "float32"}, {"name": "functional_1/res_block_0_cnn_2_batchnorm/batchnorm/sub", "shape": [1, 1, 64, 1, 1], "dtype": "float32"}, {"name": "functional_1/res_block_0_cnn_2_batchnorm/Const", "shape": [1], "dtype": "int32"}, {"name": "functional_1/res_block_0_cnn_1_batchnorm/Const_1", "shape": [2], "dtype": "int32"}, {"name": "functional_1/res_block_0_cnn_1_batchnorm/strided_slice_1/stack", "shape": [1], "dtype": "int32"}, {"name": "functional_1/res_block_0_cnn_1_batchnorm/strided_slice_1/stack_1", "shape": [1], "dtype": "int32"}, {"name": "functional_1/res_block_0_cnn_1_batchnorm/strided_slice_1/stack_2", "shape": [1], "dtype": "int32"}, {"name": "functional_1/res_block_0_cnn_1_batchnorm/concat_1/axis", "shape": [], "dtype": "int32"}, {"name": "functional_1/res_block_0_cnn_1_batchnorm/batchnorm/Rsqrt", "shape": [1, 1, 64, 1, 1], "dtype": "float32"}, {"name": "functional_1/res_block_0_cnn_1_batchnorm/batchnorm/sub", "shape": [1, 1, 64, 1, 1], "dtype": "float32"}, {"name": "functional_1/res_block_0_cnn_1_batchnorm/Const", "shape": [1], "dtype": "int32"}, {"name": "functional_1/input_cnn_batchnorm/Const_1", "shape": [2], "dtype": "int32"}, {"name": "functional_1/input_cnn_batchnorm/strided_slice_1/stack", "shape": [1], "dtype": "int32"}, {"name": "functional_1/input_cnn_batchnorm/strided_slice_1/stack_1", "shape": [1], "dtype": "int32"}, {"name": "functional_1/input_cnn_batchnorm/strided_slice_1/stack_2", "shape": [1], "dtype": "int32"}, {"name": "functional_1/input_cnn_batchnorm/concat_1/axis", "shape": [], "dtype": "int32"}, {"name": "functional_1/input_cnn_batchnorm/batchnorm/mul", "shape": [1, 1, 64, 1, 1], "dtype": "float32"}, {"name": "functional_1/input_cnn_batchnorm/batchnorm/sub", "shape": [1, 1, 64, 1, 1], "dtype": "float32"}, {"name": "functional_1/input_cnn_batchnorm/Const", "shape": [1], "dtype": "int32"}, {"name": "functional_1/reshape/strided_slice/stack", "shape": [1], "dtype": "int32"}, {"name": "functional_1/reshape/strided_slice/stack_1", "shape": [1], "dtype": "int32"}, {"name": "functional_1/reshape/strided_slice/stack_2", "shape": [1], "dtype": "int32"}, {"name": "functional_1/reshape/Reshape/shape/1", "shape": [], "dtype": "int32"}, {"name": "functional_1/reshape/Reshape/shape/2", "shape": [], "dtype": "int32"}, {"name": "functional_1/reshape/Reshape/shape/3", "shape": [], "dtype": "int32"}, {"name": "functional_1/input_cnn/Conv2D/ReadVariableOp/resource", "shape": [3, 3, 112, 64], "dtype": "float32"}, {"name": "functional_1/input_cnn_batchnorm/strided_slice/stack", "shape": [1], "dtype": "int32"}, {"name": "functional_1/input_cnn_batchnorm/strided_slice/stack_1", "shape": [1], "dtype": "int32"}, {"name": "functional_1/input_cnn_batchnorm/strided_slice/stack_2", "shape": [1], "dtype": "int32"}, {"name": "functional_1/input_cnn_batchnorm/concat/axis", "shape": [], "dtype": "int32"}, {"name": "functional_1/res_block_0_cnn_1/Conv2D/ReadVariableOp/resource", "shape": [3, 3, 64, 64], "dtype": "float32"}, {"name": "functional_1/res_block_0_cnn_1_batchnorm/strided_slice/stack", "shape": [1], "dtype": "int32"}, {"name": "functional_1/res_block_0_cnn_1_batchnorm/strided_slice/stack_1", "shape": [1], "dtype": "int32"}, {"name": "functional_1/res_block_0_cnn_1_batchnorm/strided_slice/stack_2", "shape": [1], "dtype": "int32"}, {"name": "functional_1/res_block_0_cnn_1_batchnorm/concat/axis", "shape": [], "dtype": "int32"}, {"name": "functional_1/res_block_0_cnn_2/Conv2D/ReadVariableOp/resource", "shape": [3, 3, 64, 64], "dtype": "float32"}, {"name": "functional_1/res_block_0_cnn_2_batchnorm/strided_slice/stack", "shape": [1], "dtype": "int32"}, {"name": "functional_1/res_block_0_cnn_2_batchnorm/strided_slice/stack_1", "shape": [1], "dtype": "int32"}, {"name": "functional_1/res_block_0_cnn_2_batchnorm/strided_slice/stack_2", "shape": [1], "dtype": "int32"}, {"name": "functional_1/res_block_0_cnn_2_batchnorm/concat/axis", "shape": [], "dtype": "int32"}, {"name": "functional_1/res_block_1_cnn_1/Conv2D/ReadVariableOp/resource", "shape": [3, 3, 64, 64], "dtype": "float32"}, {"name": "functional_1/res_block_1_cnn_1_batchnorm/strided_slice/stack", "shape": [1], "dtype": "int32"}, {"name": "functional_1/res_block_1_cnn_1_batchnorm/strided_slice/stack_1", "shape": [1], "dtype": "int32"}, {"name": "functional_1/res_block_1_cnn_1_batchnorm/strided_slice/stack_2", "shape": [1], "dtype": "int32"}, {"name": "functional_1/res_block_1_cnn_1_batchnorm/concat/axis", "shape": [], "dtype": "int32"}, {"name": "functional_1/res_block_1_cnn_2/Conv2D/ReadVariableOp/resource", "shape": [3, 3, 64, 64], "dtype": "float32"}, {"name": "functional_1/res_block_1_cnn_2_batchnorm/strided_slice/stack", "shape": [1], "dtype": "int32"}, {"name": "functional_1/res_block_1_cnn_2_batchnorm/strided_slice/stack_1", "shape": [1], "dtype": "int32"}, {"name": "functional_1/res_block_1_cnn_2_batchnorm/strided_slice/stack_2", "shape": [1], "dtype": "int32"}, {"name": "functional_1/res_block_1_cnn_2_batchnorm/concat/axis", "shape": [], "dtype": "int32"}, {"name": "functional_1/res_block_2_cnn_1/Conv2D/ReadVariableOp/resource", "shape": [3, 3, 64, 64], "dtype": "float32"}, {"name": "functional_1/res_block_2_cnn_1_batchnorm/strided_slice/stack", "shape": [1], "dtype": "int32"}, {"name": "functional_1/res_block_2_cnn_1_batchnorm/strided_slice/stack_1", "shape": [1], "dtype": "int32"}, {"name": "functional_1/res_block_2_cnn_1_batchnorm/strided_slice/stack_2", "shape": [1], "dtype": "int32"}, {"name": "functional_1/res_block_2_cnn_1_batchnorm/concat/axis", "shape": [], "dtype": "int32"}, {"name": "functional_1/res_block_2_cnn_2/Conv2D/ReadVariableOp/resource", "shape": [3, 3, 64, 64], "dtype": "float32"}, {"name": "functional_1/res_block_2_cnn_2_batchnorm/strided_slice/stack", "shape": [1], "dtype": "int32"}, {"name": "functional_1/res_block_2_cnn_2_batchnorm/strided_slice/stack_1", "shape": [1], "dtype": "int32"}, {"name": "functional_1/res_block_2_cnn_2_batchnorm/strided_slice/stack_2", "shape": [1], "dtype": "int32"}, {"name": "functional_1/res_block_2_cnn_2_batchnorm/concat/axis", "shape": [], "dtype": "int32"}, {"name": "functional_1/res_block_3_cnn_1/Conv2D/ReadVariableOp/resource", "shape": [3, 3, 64, 64], "dtype": "float32"}, {"name": "functional_1/res_block_3_cnn_1_batchnorm/strided_slice/stack", "shape": [1], "dtype": "int32"}, {"name": "functional_1/res_block_3_cnn_1_batchnorm/strided_slice/stack_1", "shape": [1], "dtype": "int32"}, {"name": "functional_1/res_block_3_cnn_1_batchnorm/strided_slice/stack_2", "shape": [1], "dtype": "int32"}, {"name": "functional_1/res_block_3_cnn_1_batchnorm/concat/axis", "shape": [], "dtype": "int32"}, {"name": "functional_1/res_block_3_cnn_2/Conv2D/ReadVariableOp/resource", "shape": [3, 3, 64, 64], "dtype": "float32"}, {"name": "functional_1/res_block_3_cnn_2_batchnorm/strided_slice/stack", "shape": [1], "dtype": "int32"}, {"name": "functional_1/res_block_3_cnn_2_batchnorm/strided_slice/stack_1", "shape": [1], "dtype": "int32"}, {"name": "functional_1/res_block_3_cnn_2_batchnorm/strided_slice/stack_2", "shape": [1], "dtype": "int32"}, {"name": "functional_1/res_block_3_cnn_2_batchnorm/concat/axis", "shape": [], "dtype": "int32"}, {"name": "functional_1/res_block_4_cnn_1/Conv2D/ReadVariableOp/resource", "shape": [3, 3, 64, 64], "dtype": "float32"}, {"name": "functional_1/res_block_4_cnn_1_batchnorm/strided_slice/stack", "shape": [1], "dtype": "int32"}, {"name": "functional_1/res_block_4_cnn_1_batchnorm/strided_slice/stack_1", "shape": [1], "dtype": "int32"}, {"name": "functional_1/res_block_4_cnn_1_batchnorm/strided_slice/stack_2", "shape": [1], "dtype": "int32"}, {"name": "functional_1/res_block_4_cnn_1_batchnorm/concat/axis", "shape": [], "dtype": "int32"}, {"name": "functional_1/res_block_4_cnn_2/Conv2D/ReadVariableOp/resource", "shape": [3, 3, 64, 64], "dtype": "float32"}, {"name": "functional_1/res_block_4_cnn_2_batchnorm/strided_slice/stack", "shape": [1], "dtype": "int32"}, {"name": "functional_1/res_block_4_cnn_2_batchnorm/strided_slice/stack_1", "shape": [1], "dtype": "int32"}, {"name": "functional_1/res_block_4_cnn_2_batchnorm/strided_slice/stack_2", "shape": [1], "dtype": "int32"}, {"name": "functional_1/res_block_4_cnn_2_batchnorm/concat/axis", "shape": [], "dtype": "int32"}, {"name": "functional_1/res_block_5_cnn_1/Conv2D/ReadVariableOp/resource", "shape": [3, 3, 64, 64], "dtype": "float32"}, {"name": "functional_1/res_block_5_cnn_1_batchnorm/strided_slice/stack", "shape": [1], "dtype": "int32"}, {"name": "functional_1/res_block_5_cnn_1_batchnorm/strided_slice/stack_1", "shape": [1], "dtype": "int32"}, {"name": "functional_1/res_block_5_cnn_1_batchnorm/strided_slice/stack_2", "shape": [1], "dtype": "int32"}, {"name": "functional_1/res_block_5_cnn_1_batchnorm/concat/axis", "shape": [], "dtype": "int32"}, {"name": "functional_1/res_block_5_cnn_2/Conv2D/ReadVariableOp/resource", "shape": [3, 3, 64, 64], "dtype": "float32"}, {"name": "functional_1/res_block_5_cnn_2_batchnorm/strided_slice/stack", "shape": [1], "dtype": "int32"}, {"name": "functional_1/res_block_5_cnn_2_batchnorm/strided_slice/stack_1", "shape": [1], "dtype": "int32"}, {"name": "functional_1/res_block_5_cnn_2_batchnorm/strided_slice/stack_2", "shape": [1], "dtype": "int32"}, {"name": "functional_1/res_block_5_cnn_2_batchnorm/concat/axis", "shape": [], "dtype": "int32"}, {"name": "functional_1/policy_cnn_1/Conv2D/ReadVariableOp/resource", "shape": [3, 3, 64, 64], "dtype": "float32"}, {"name": "functional_1/policy_cnn_1_batchnorm/strided_slice/stack", "shape": [1], "dtype": "int32"}, {"name": "functional_1/policy_cnn_1_batchnorm/strided_slice/stack_1", "shape": [1], "dtype": "int32"}, {"name": "functional_1/policy_cnn_1_batchnorm/strided_slice/stack_2", "shape": [1], "dtype": "int32"}, {"name": "functional_1/policy_cnn_1_batchnorm/concat/axis", "shape": [], "dtype": "int32"}, {"name": "functional_1/policy_cnn_2/Conv2D/ReadVariableOp/resource", "shape": [3, 3, 64, 80], "dtype": "float32"}, {"name": "functional_1/policy_cnn_2/BiasAdd/ReadVariableOp/resource", "shape": [80,1,1], "dtype": "float32"}, {"name": "functional_1/apply_policy_map/Reshape/shape", "shape": [2], "dtype": "int32"}, {"name": "functional_1/apply_policy_map/MatMul/b", "shape": [5120, 1858], "dtype": "float32", "quantization": {"dtype": "uint8", "min": -0.0, "scale": 0.00392156862745098, "original_dtype": "float32"}}]}]}
